Interactive-Selection-for-Image-Dehazing-main/saved_models/49_best_model_2024-03-03_01-58-26.pth/199_best_model_2024-03-04_05-36-54.pth/AOD_199.pth (torch, 32798 bytes, 30 tensors)

conv1.weight f4 [3, 3, 1, 1]
0	0xbe80f567	-0.25187227
1	0x3ec26833	0.37970123
2	0x3e8592a0	0.26088428
3	0x3f1d6972	0.6148902
4	0x3edf73c8	0.43643022
5	0xbda50a02	-0.080585495
6	0xbcbee23e	-0.02330124
7	0x3e1c2b14	0.15250808
8	0x3e484b47	0.19559966

conv1.bias f4 [3]
0	0xbe340fd8	-0.17584169
1	0xbef5033d	-0.47854033
2	0x3d0ad5ff	0.03389549

conv2.weight f4 [3, 3, 3, 3]
0	0xbe253557	-0.16133629
1	0xbc2e4634	-0.010636855
2	0xbd49f16f	-0.049302515
3	0xbdfbbf67	-0.122923665
4	0xbe00e510	-0.1258738
5	0x3dca4208	0.09875876
6	0x3daa2b0d	0.083089925
7	0x3c8ee49d	0.017442996
8	0x3d2ff135	0.042954642
9	0xbe726ef6	-0.2367514
10	0xbe45f4f5	-0.19331725
11	0xbe2283f5	-0.1587065
12	0x3daf097b	0.0854673
13	0x3c308edf	0.010776251
14	0xbe373ca0	-0.1789422
15	0xbdafd5f5	-0.08585731
16	0xbd5d8b7d	-0.054088105
17	0xbdf26958	-0.11836499
18	0x3d12d10f	0.035843905
19	0x3e1a6c48	0.15080369
20	0x3e04d80b	0.12973039
21	0x3df824ec	0.12116417
22	0xbc798200	-0.015228748
23	0xbd1e9f51	-0.038726155
24	0x3e1f6cba	0.1556882
25	0x3e034bcf	0.12821887
26	0x3d979e33	0.07403221
27	0xbc9a129e	-0.018807705
28	0x3cddadca	0.027060408
29	0x3ce44f4c	0.027869843
30	0xbc1db205	-0.009624963
31	0x3dc9ffe3	0.0986326
32	0x3e22e982	0.15909389
33	0xbe3ebb72	-0.18626192
34	0xbe111a1d	-0.14170118
35	0xbe36e825	-0.17861994
36	0xbdfd53c5	-0.123694934
37	0x3d2f16da	0.042746402
38	0x3e3c88f7	0.18411623
39	0xbbb5a859	-0.0055437502
40	0xbbc9c4c0	-0.0061574876
41	0xbda97e85	-0.08276085
42	0xbd376489	-0.044773612
43	0xbd85221d	-0.06500647
44	0x3e37709a	0.17914048
45	0x3e34c035	0.17651446
46	0xbdafa2c2	-0.085759655
47	0xbd80787f	-0.06272983
48	0xbe02d0f2	-0.12775019
49	0x3d214841	0.039375547
50	0xbdc77756	-0.097395584
51	0xbd2552c2	-0.040362127
52	0xbdf1fce5	-0.11815814
53	0xbd4f68e5	-0.050637145
54	0xbe64f8c9	-0.22360529
55	0x3db55665	0.08854369
56	0x3e24f783	0.16110043
57	0xbd9f6920	-0.07783723
58	0xbe13f45a	-0.14448681
59	0xbe391470	-0.18074203
60	0xbe7092cf	-0.23493503
61	0xbe81e76d	-0.25371876
62	0xbdb8a6e3	-0.09016206
63	0x3caced0c	0.021109127
64	0x3d58363b	0.052786093
65	0x3e859cca	0.26096183
66	0x3e11ceaf	0.14239
67	0xbda20258	-0.07910603
68	0x3e70f554	0.23531085
69	0xbe74072b	-0.2383086
70	0xbe7848a0	-0.24246454
71	0x3e2adec6	0.16686544
72	0xbd9ddd94	-0.07708278
73	0x3e2593a6	0.16169605
74	0xbe1c807e	-0.15283391
75	0x3e3da483	0.18519787
76	0xbcaee92d	-0.021351421
77	0x3dc4ecfd	0.096155144
78	0x3d5d5617	0.05403718
79	0xbd9a4170	-0.075320125
80	0xbd8af37c	-0.06784722

conv2.bias f4 [3]
0	0x3e5d6f75	0.21624549
1	0xbdfbc674	-0.12293711
2	0x3d40707a	0.046982266

conv3.weight f4 [3, 6, 5, 5]
0	0xbcebb42d	-0.028772438
1	0xbdc1fb57	-0.094717674
2	0x3c87f20f	0.016594915
3	0xbce5a33c	-0.028031938
4	0xbde934ad	-0.11387
5	0x3ccc66b5	0.024951318
6	0x3caa378a	0.020778436
7	0x3ca26fad	0.019828642
8	0xbc9f93f3	-0.019479727
9	0xbdeefe53	-0.11669602
10	0xbd01eb1c	-0.03171836
11	0x3d1076be	0.03526949
12	0x3dbd623f	0.092472546
13	0x3aefb147	0.0018287086
14	0xbda453c6	-0.08023791
15	0x3c77f2eb	0.0151336
16	0x3d9376a0	0.0720036
17	0x3c70764f	0.0146766445
18	0xbd42f9f5	-0.04760166
19	0xbe0452a8	-0.12922156
20	0xbd805a50	-0.06267226
21	0x3d354eec	0.04426472
22	0xbd303039	-0.04301474
23	0xbcbf1471	-0.023325177
24	0xbe2ed713	-0.17074232
25	0xbbe52899	-0.006993365
26	0x3dbd2ab8	0.092366636
27	0xbc6a1dad	-0.014289302
28	0xbba522ec	-0.0050395634
29	0xbd074cd8	-0.03303227
30	0x3d12fc38	0.035885066
31	0x3d924ace	0.07143174
32	0x3d571da3	0.0525185
33	0x3de4d2e1	0.111730345
34	0x3d15e2b4	0.036593154
35	0x3be8d79b	0.0071057803
36	0x3c4f5a09	0.012655743
37	0xbd06abe3	-0.032878768
38	0xbd03ed60	-0.0322088
39	0xbd61f829	-0.055168305
40	0xbd0d7da6	-0.034543656
41	0x3e096cdd	0.13420434
42	0x3d97e370	0.07416427
43	0x3dce5cda	0.10076304
44	0x3cc116aa	0.023570377
45	0xbd704dba	-0.058667876
46	0x3cfc4620	0.030795157
47	0xbbbf96c9	-0.0058468324
48	0xbcf2cd6d	-0.02963897
49	0x3c1fe989	0.009760269
50	0xbd92a2f3	-0.07159986
51	0x3c219adc	0.0098635815
52	0xbc4a7521	-0.012357027
53	0xbd382e00	-0.044965744
54	0xbd7e244a	-0.062046327
55	0xbd113a25	-0.03545584
56	0xbd9b4481	-0.075814255
57	0x3c61b1b1	0.013775275
58	0xbd9e19e3	-0.07719781
59	0xbd2ed148	-0.042680055
60	0x3d0b71f5	0.034044225
61	0xbd83798b	-0.06419667
62	0x3e0ff1ab	0.14057033
63	0x3da21bb6	0.07915442
64	0x3ce30568	0.027712539
65	0xbd697656	-0.05699762
66	0x3cb40389	0.021974342
67	0x3d2ed83e	0.042686693
68	0xbce21c10	-0.027601272
69	0x3c981bd2	0.018567953
70	0xbd83e27e	-0.06439684
71	0xbd8bf458	-0.06833714
72	0xbcc5328c	-0.024071954
73	0xbd098fbb	-0.033584338
74	0xbc84e248	-0.01622118
75	0xbd18e056	-0.03732332
76	0x3d7df34f	0.061999615
77	0x3d918a5c	0.07106468
78	0x3cbae306	0.022813331
79	0xbb2c913e	-0.0026331688
80	0xbd8c50b9	-0.06851334
81	0x3bb98f9f	0.005662873
82	0x3d18cdb3	0.037305545
83	0xbd9eae50	-0.07748091
84	0xbc15cbcb	-0.009142826
85	0xbd404f0b	-0.04695038
86	0x3df07d24	0.11742619
87	0x3d3d0df1	0.046155874
88	0x3dac84a2	0.08423735
89	0xbccfaf36	-0.025352102
90	0xbd837e86	-0.06420617
91	0xbcfa6ce3	-0.0305695
92	0x3cefbc33	0.029264545
93	0x3ce5c70d	0.028049016
94	0xbce218f4	-0.02759979
95	0xbda2435b	-0.07923003
96	0xbd0ace6f	-0.033888277
97	0xbbfe1faf	-0.007755242
98	0xbdc86a9b	-0.097859584
99	0xbd5236ef	-0.05132192
100	0xbd5454f6	-0.051838838
101	0x3d314b74	0.04328485
102	0xbd1076dd	-0.035269607
103	0xbd58e1d5	-0.052949745
104	0x3ccaf093	0.024772918
105	0xbdade2c7	-0.0849052
106	0x3d322850	0.043495476
107	0xbd011c24	-0.031520978
108	0x3c2f4356	0.0106972065
109	0xbd840f82	-0.064482704
110	0xbc72d265	-0.01482067
111	0xbdb8cac2	-0.09023048
112	0x3b44f564	0.003005349
113	0x3c8c1f41	0.017104747
114	0x3d5b818c	0.053590342
115	0x3d48a391	0.048984114
116	0xbc67cd8a	-0.014148125
117	0x3d7862c8	0.06064108
118	0x3d8cbf95	0.06872479
119	0xbd27ed39	-0.040997718
120	0x3d5ec8f9	0.05439088
121	0x3d35e032	0.044403262
122	0xbcb50dc1	-0.022101285
123	0xbdaf4288	-0.08557612
124	0xbd9cf209	-0.07663352
125	0x3e5c2f12	0.21502331
126	0x3e154853	0.14578371
127	0x3e49f27c	0.19721407
128	0x3dff7e3b	0.124752484
129	0x3df98a96	0.12184636
130	0x3e0b5902	0.13608173
131	0x3e345d4f	0.1761372
132	0x3e15dffb	0.14636223
133	0x3e19080c	0.14944476
134	0x3e456e54	0.19280368
135	0x3e8ee194	0.27906477
136	0x3d9402d5	0.07227103
137	0x3e76577f	0.24056815
138	0x3dd440ab	0.10363897
139	0x3d872584	0.065989524
140	0x3d948bd9	0.07253236
141	0x3d4100f2	0.047120042
142	0x3de89950	0.11357367
143	0x3d82bb17	0.06383341
144	0x3dff8246	0.124760196
145	0x3e324878	0.17410457
146	0x3e0d861f	0.13820694
147	0x3e15347e	0.14570805
148	0x3e3dbf1f	0.18529938
149	0x3e3b0249	0.1826259
150	0xbd7ea488	-0.062168628
151	0xbd1742e1	-0.036929015
152	0x3d1016f7	0.03517815
153	0x3c3acbad	0.011401099
154	0x3df4fdb5	0.11962453
155	0xbdd6ac99	-0.10482139
156	0xbd1804c6	-0.037113927
157	0x3d003f69	0.031310473
158	0x3d8d512b	0.06900247
159	0xbc40b15d	-0.011761037
160	0xbdf86710	-0.121290326
161	0x3d0819b0	0.033227623
162	0xbd308ebd	-0.043104876
163	0x3c83c955	0.016087214
164	0x3dfe1e12	0.12408079
165	0xbdcc94cb	-0.099893175
166	0x3d0eee60	0.0348953
167	0xbc731221	-0.014835865
168	0x3d03bf2e	0.032164745
169	0x3dfdaea2	0.12386824
170	0xbbf8b696	-0.0075901253
171	0xbd250a59	-0.04029307
172	0x3dc104dd	0.09424756
173	0x3d77fd41	0.060544256
174	0x3da9c2c6	0.08289103
175	0xbd10ae98	-0.035322756
176	0x3dccfbf5	0.100089945
177	0x3e02a824	0.12759453
178	0x3df38f13	0.118925236
179	0x3dc0b5f9	0.094097085
180	0x3a01bb0e	0.0004948833
181	0xbd946ee4	-0.07247713
182	0x3cdb7064	0.02678699
183	0x3db32471	0.08747185
184	0x3d4aba99	0.04949436
185	0xbd9b8028	-0.07592803
186	0xbd3046d7	-0.04303631
187	0x3dbc55de	0.09196065
188	0x3da6369a	0.08115883
189	0x3d6d7d3a	0.057980753
190	0xbc42bc6b	-0.011885743
191	0xbc9ac078	-0.018890604
192	0xbbb9b95c	-0.0056678485
193	0xbc092ae6	-0.008372044
194	0x3d828ba4	0.063742906
195	0xbce072c7	-0.02739848
196	0x3d44a762	0.04801119
197	0x392a110d	0.00016218815
198	0x3e11510e	0.14191076
199	0x3d9a6c04	0.075401336
200	0xbd554af0	-0.05207342
201	0xbdcb6a50	-0.09932387
202	0x3ced2657	0.028948946
203	0xbd969152	-0.073519364
204	0x3c1d3a6a	0.0095964465
205	0xbdb35542	-0.08756496
206	0xbde69379	-0.11258597
207	0xbd9d95b0	-0.07694566
208	0xbd92d1a0	-0.07168889
209	0xbc338e58	-0.01095923
210	0xbd6a8af0	-0.057261407
211	0xbdb2e171	-0.08734406
212	0x3dc34387	0.09534364
213	0x3dcc4e20	0.09975839
214	0x3d8bf5ae	0.06833969
215	0xbdcf5b28	-0.101248085
216	0xbda47305	-0.08029751
217	0x3d886143	0.06659176
218	0xbd128c70	-0.035778463
219	0x3ddc2b9d	0.10750506
220	0xbdc770c2	-0.09738304
221	0x3d3e2cc5	0.046429414
222	0x3d3edc81	0.046597008
223	0xbcd50a62	-0.026005927
224	0x3dd5f690	0.10447419
225	0xbef0fc4b	-0.47067484
226	0xbeb4d79e	-0.35320753
227	0xbeac04a9	-0.33597305
228	0xbec6624a	-0.38746864
229	0xbf0b8505	-0.54499847
230	0xbe1c940c	-0.1529085
231	0xbcaafcba	-0.020872463
232	0xbc103669	-0.008802035
233	0xbe2ab694	-0.1667121
234	0xbe67ecb8	-0.22648895
235	0x3cd24dfc	0.025671951
236	0x3d74a716	0.059729658
237	0x3e22afc2	0.15887359
238	0x3cf952ea	0.030435044
239	0xbe0d4432	-0.13795546
240	0x3df089d9	0.11745042
241	0x3df60314	0.12012306
242	0x3e0cd281	0.13752176
243	0xbd125041	-0.035721067
244	0xbe05ee55	-0.13079198
245	0x3cab7b72	0.020932887
246	0xbc74eff2	-0.014949786
247	0xbca0da76	-0.01963542
248	0xbd82819d	-0.06372378
249	0xbe3cc149	-0.18433107
250	0xbd4d3e77	-0.0501084
251	0xbd092145	-0.033478994
252	0x3cf036ce	0.029323008
253	0xbbd60545	-0.00653139
254	0x3d4ad172	0.04951615
255	0xbbaa9e0c	-0.005206829

conv3.bias f4 [3]
0	0x3e4eadf1	0.20183541
1	0x3dbe7e15	0.09301392
2	0x3d81b34c	0.06333026

conv4.weight f4 [3, 6, 7, 7]
0	0xbcf2f601	-0.02965832
1	0xbda57e14	-0.08080688
2	0xbdc9d555	-0.09855143
3	0x3c778fca	0.015109966
4	0xbcbe7f24	-0.023253985
5	0xbe01e833	-0.12686233
6	0xbe511a29	-0.20420136
7	0xbca05cbf	-0.019575475
8	0xbd931494	-0.07181659
9	0xbd6942c2	-0.05694843
10	0x3d6576d6	0.056021534
11	0xbdefdfe9	-0.11712629
12	0xbdf86980	-0.121294975
13	0xbe158549	-0.14601626
14	0xbc056ac0	-0.008143127
15	0xbd9b6d6e	-0.075892314
16	0xbc16919d	-0.00918999
17	0x3dca4682	0.098767295
18	0x3b9e355e	0.004828139
19	0xbdabae34	-0.08382836
20	0xbdbfd591	-0.093669064
21	0xbc99f5a6	-0.018793892
22	0x3d702ec0	0.058638334
23	0x3d943529	0.07236702
24	0x3defdffb	0.11712643
25	0x3a8810f8	0.0010381034
26	0xbca3d626	-0.019999575
27	0xbccd1242	-0.02503312
28	0xbc64d953	-0.01396783
29	0xbd818e2b	-0.063259445
30	0xbd2d1682	-0.042257793
31	0x3cb46190	0.022019178
32	0xbb053e2a	-0.0020331242
33	0xbd3e7dfb	-0.046506863
34	0xbe149611	-0.14510371
35	0xbdef95fa	-0.11698528
36	0xbd95842f	-0.07300603
37	0xbd04bc8d	-0.03240638
38	0xbd6e4b36	-0.058177195
39	0xbdf37aeb	-0.11888679
40	0xbe20b791	-0.15695025
41	0xbe307311	-0.17231394
42	0xbc58aba4	-0.013224516
43	0xbce278c7	-0.027645482
44	0xbd5d3755	-0.054007847
45	0x3d34e248	0.04416111
46	0xbcfdbd09	-0.030973928
47	0xbe098c5c	-0.13432449
48	0xbe59df3b	-0.21276562
49	0xbbe36c9b	-0.006940437
50	0xbd0554d4	-0.0325516
51	0xbc10433e	-0.008805094
52	0xbc074ce8	-0.008258082
53	0x3d9591ab	0.073031746
54	0x3d8e7ab6	0.06956999
55	0xb9e84e4d	-0.00044308827
56	0x3bdf6c6e	0.0068183457
57	0xbccce5d4	-0.025011934
58	0x3c9f6626	0.019457888
59	0xbd17a562	-0.037022956
60	0x3d11ee3c	0.03562759
61	0x3c825627	0.015910221
62	0xbce92cf7	-0.028463824
63	0xbd2b9f26	-0.041899823
64	0xbcf73be4	-0.030179925
65	0xbc0fbcb2	-0.008773016
66	0xb9508857	-0.00019887216
67	0xbcbaebc8	-0.022817507
68	0xbd13d824	-0.0360948
69	0xbc1f72c3	-0.009731951
70	0x3d48ab88	0.04899171
71	0x3d14cb99	0.03632698
72	0xbd0bc867	-0.034126665
73	0xbd38644c	-0.045017526
74	0x3ce89325	0.028390476
75	0x3d79aaa0	0.060953736
76	0x3d0952f1	0.033526365
77	0x382c3b7d	4.10634e-05
78	0xbd3849fd	-0.044992436
79	0xbb8fbd76	-0.004386599
80	0xbcb43e90	-0.022002488
81	0xbcbe982c	-0.02326592
82	0xbcaddb99	-0.021222876
83	0x3d6db632	0.058035083
84	0xbd3eddba	-0.046598174
85	0x3cf54199	0.029938506
86	0x3d58a6b7	0.052893367
87	0xbc633904	-0.013868574
88	0xbd4d5c6f	-0.05013698
89	0xbcda45a6	-0.02664454
90	0xbd2f5b1a	-0.04281149
91	0xbcf635a3	-0.030054873
92	0x3d0164c2	0.03159023
93	0xbd5df48a	-0.05418829
94	0xbca866a9	-0.020556765
95	0x3c1a12cd	0.0094038965
96	0xbd38a798	-0.045081705
97	0xbd22baeb	-0.03972904
98	0xbf07c17d	-0.53029615
99	0xbede84c1	-0.43460658
100	0xbe63f7d4	-0.22262508
101	0xbce922e8	-0.028459027
102	0xbe6ae2e6	-0.22938117
103	0xbe9c46b8	-0.30522704
104	0xbeae272e	-0.34014267
105	0xbef054d3	-0.46939716
106	0xbe9e3f66	-0.30907744
107	0xbea70abf	-0.32625386
108	0xbe479489	-0.19490255
109	0xbec131a9	-0.377332
110	0xbea4faa1	-0.32222465
111	0xbeb983ab	-0.36233267
112	0xbeb6f09a	-0.3573044
113	0xbe849418	-0.25894237
114	0xbe65b76c	-0.22433251
115	0xbbf22093	-0.007389137
116	0xbe69644e	-0.2279217
117	0xbe1ac418	-0.15113866
118	0xbe6b771c	-0.22994655
119	0xbe1734ad	-0.14766188
120	0xbe0ddca1	-0.13853694
121	0xb9e990f0	-0.0004454921
122	0x3d53eb32	0.05173797
123	0xbdfdf260	-0.12399745
124	0xbca82ab5	-0.020528177
125	0xbda50cc4	-0.080590755
126	0xbe8db7ed	-0.27679387
127	0xbe460de7	-0.19341241
128	0xbdd29f43	-0.10284283
129	0x3c0cb2aa	0.008587519
130	0x3decec1d	0.115684725
131	0x3d163a30	0.036676586
132	0xbd185434	-0.037189677
133	0xbf06d189	-0.52663475
134	0xbeb88cfd	-0.36045066
135	0xbe50981d	-0.20370527
136	0xbe123592	-0.14278248
137	0xbe5b9a26	-0.21445522
138	0xbe5db09f	-0.21649407
139	0xbe8652f3	-0.2623516
140	0xbf2c0265	-0.67191154
141	0xbf1591f0	-0.5842581
142	0xbee346a9	-0.44389847
143	0xbea95d77	-0.3307912
144	0xbea3bda6	-0.31980628
145	0xbebdd4c4	-0.3707639
146	0xbec40137	-0.38282177
147	0xbe2ff231	-0.17182232
148	0xbd41a3fc	-0.04727553
149	0xbdbd3b32	-0.09239806
150	0x3d2e6293	0.042574476
151	0xbdd38766	-0.103285596
152	0xbe2ae745	-0.16689785
153	0xbe8073fa	-0.25088483
154	0xbd92e5ea	-0.07172759
155	0x3c50d250	0.012745455
156	0x3cc0c98d	0.023533607
157	0x3dc89929	0.09794838
158	0xbd32ae9e	-0.04362356
159	0xbd9d94b1	-0.07694376
160	0xbddf57fb	-0.10905453
161	0x3d590a9a	0.052988626
162	0x3d03b8bc	0.0321586
163	0x3db224d1	0.086984284
164	0x3e3b8cb7	0.18315397
165	0x3d220cba	0.03956292
166	0xbd21ca37	-0.039499488
167	0xbdafb283	-0.0857897
168	0x3df3c49e	0.11902736
169	0x3d99ffae	0.0751947
170	0x3e3f0610	0.18654656
171	0x3e633afe	0.22190472
172	0x3e07607c	0.132204
173	0x3d64927f	0.055803772
174	0x3d0cd490	0.034382403
175	0xbd331195	-0.04371794
176	0x3c8dff30	0.017333597
177	0x3e0cfc1e	0.1376805
178	0x3e3a3808	0.18185437
179	0x3dd299a0	0.10283208
180	0x3d358d42	0.044324167
181	0xbd29d698	-0.04146442
182	0xbe203515	-0.15645249
183	0xbd07ad48	-0.03312424
184	0xbc13353f	-0.008984863
185	0x3cab16a3	0.020884817
186	0xbcbecc7e	-0.023290869
187	0xbd7bb686	-0.061453365
188	0xbdef2dce	-0.116786584
189	0xbe3f8fe0	-0.18707228
190	0xbda7cb52	-0.08193077
191	0xbd90662e	-0.07050739
192	0x3d8b68a4	0.06807068
193	0xbd679bd6	-0.0565451
194	0xbdfcabec	-0.12337479
195	0xbe669ff4	-0.22521955
196	0x3e98642c	0.29763925
197	0x3e83d2a6	0.2574665
198	0x3e7259da	0.23667088
199	0x3e847365	0.2586929
200	0x3ea3261a	0.31865007
201	0x3e89d5f7	0.26921055
202	0x3ead25b6	0.33817834
203	0x3e85ed0d	0.26157418
204	0x3e5bd6e5	0.21468695
205	0x3e8ccb6b	0.27498946
206	0x3e5ca80e	0.21548483
207	0x3e4e95f3	0.20174389
208	0x3e7861e0	0.24256086
209	0x3e9c90d3	0.30579242
210	0x3e83971b	0.25701222
211	0x3e5f7a45	0.21823986
212	0x3e7bdb1c	0.24595302
213	0x3e918595	0.28422228
214	0x3e8d1781	0.27556995
215	0x3e93c6bc	0.2886256
216	0x3ebbb09e	0.36658186
217	0x3ea49866	0.3214752
218	0x3e66a9be	0.22525689
219	0x3e9741ed	0.29542485
220	0x3e516cd8	0.20451677
221	0x3e8f0da5	0.27940097
222	0x3e839c71	0.25705293
223	0x3eaf845c	0.3428067
224	0x3e8ba591	0.27274755
225	0x3e8266f0	0.2546916
226	0x3e607d1b	0.21922724
227	0x3e3b4811	0.1828921
228	0x3e2b3773	0.16720371
229	0x3e37d9b0	0.17954135
230	0x3e9d5804	0.30731213
231	0x3ea0e316	0.31423253
232	0x3e5e292b	0.21695392
233	0x3e59ebdf	0.21281384
234	0x3e83dc7d	0.25754157
235	0x3e875371	0.26430848
236	0x3e60ccc5	0.21953113
237	0x3e9db5bf	0.30802724
238	0x3e801f41	0.25023845
239	0x3ea0ab49	0.3138068
240	0x3e79361c	0.24337047
241	0x3e4b103e	0.19830415
242	0x3e3f8bdf	0.187057
243	0x3e87de70	0.26536894
244	0x3e90eb35	0.2830445
245	0x3e4a57f9	0.19760121
246	0x3e12fc70	0.1435411
247	0x3da6eaed	0.08150277
248	0x3ddf2e03	0.10897448
249	0x3e215766	0.15755996
250	0x3dbf06c8	0.09327465
251	0x3e706913	0.23477583
252	0x3e0fa72c	0.14028615
253	0x3dc8cb34	0.09804383
254	0x3d5c97d3	0.05385573
255	0x3d823368	0.06357461

conv4.bias f4 [3]
0	0x3da4e9f2	0.08052434
1	0x3e09aca0	0.13444757
2	0x3d1e0144	0.038575426

conv5.weight f4 [3, 12, 3, 3]
0	0xbdcde985	-0.10054306
1	0xbcdc7e15	-0.02691559
2	0xbe8026b9	-0.25029543
3	0xbe52bd7d	-0.20580097
4	0x3e1c2d6c	0.15251702
5	0xbe459c2e	-0.19297859
6	0xbe931452	-0.2872644
7	0xbdab7fdd	-0.08373997
8	0xbd4e9e9a	-0.050444223
9	0x3e1279bc	0.1430425
10	0x3bc64c3b	0.006051568
11	0xbd08142a	-0.033222355
12	0xbd536460	-0.051609397
13	0x3d4fdfa3	0.050750386
14	0xbbcbef42	-0.00622359
15	0xbd2c8227	-0.04211631
16	0x3cce5748	0.025188103
17	0x3d4d2345	0.050082464
18	0x3d847e1d	0.06469367
19	0x3c819f85	0.015823135
20	0x3d26cf26	0.040724896
21	0x3e1c7201	0.15277864
22	0x3ec2ef67	0.38073274
23	0x3e25b2e9	0.1618153
24	0xbc0206de	-0.007936208
25	0x3e262c70	0.16227889
26	0xbd14dd77	-0.036344018
27	0x3ce83bdf	0.028348861
28	0x3e31454e	0.17311594
29	0x3d1c886c	0.03821604
30	0x3e82c92a	0.255441
31	0x3ea8e5fc	0.32987964
32	0x3e58ee19	0.21184577
33	0x3d0c1cb8	0.034207076
34	0x3e97df10	0.2966237
35	0x3d494aaf	0.04914349
36	0x3d981be2	0.07427193
37	0x3d8d89f7	0.0691108
38	0x3d9bc4f8	0.07605928
39	0x3c950ce5	0.018194625
40	0xbd6f21a1	-0.05838168
41	0x3ce38627	0.02777393
42	0xbccc8b24	-0.024968691
43	0xbc8321ad	-0.016007269
44	0x3d9a454d	0.07532749
45	0xbc8fe82d	-0.017566765
46	0xbe2821c6	-0.16419134
47	0xbe624015	-0.22094758
48	0x3d5854eb	0.05281536
49	0x3e8076de	0.25090688
50	0x3ec238f4	0.37934077
51	0xbed9eda9	-0.42564133
52	0x3e355d05	0.17711265
53	0xbed81e08	-0.42210412
54	0x3da26cc5	0.079309024
55	0x3de9451b	0.11390134
56	0x3dab0270	0.08350074
57	0x3e18e41a	0.14930764
58	0x3e92224b	0.28541788
59	0x3df273b0	0.11838472
60	0x3d833be4	0.064079076
61	0x3e0ebc73	0.13939075
62	0xbc083bcb	-0.008315037
63	0xbdf093c3	-0.11746933
64	0xbe367a4a	-0.17820087
65	0xbe9ea70f	-0.3098683
66	0xbde82635	-0.113354124
67	0xbe3defb7	-0.18548475
68	0xbe089a9b	-0.13340227
69	0xbe85d574	-0.26139414
70	0xbe344bea	-0.17607084
71	0xbdfc7be6	-0.12328319
72	0x3de41403	0.111366294
73	0x3e23c34c	0.15992469
74	0x3dadd8eb	0.084886394
75	0x3e08356c	0.13301629
76	0x3e5a2afd	0.21305461
77	0x3d12864f	0.035772618
78	0x3d889371	0.06668747
79	0x3d8e4279	0.069462724
80	0x3e1a7160	0.15082312
81	0xbc9f7ea5	-0.019469569
82	0x3cebe58f	0.028795986
83	0x3d9179e6	0.071033284
84	0x3d29ab64	0.041423216
85	0x3e00ab9c	0.12565464
86	0xbc926293	-0.01786927
87	0x3e023779	0.12716474
88	0x3cb2b8d9	0.021816658
89	0xbc05d0b4	-0.0081674345
90	0x3dd45f17	0.103696994
91	0x3e078443	0.13234048
92	0x3def6c3f	0.11690568
93	0x3b225ae3	0.002477341
94	0x3de26349	0.110540934
95	0x3cfacb94	0.030614652
96	0x3db5bf43	0.08874371
97	0x3e1a57f3	0.15072612
98	0x3e0aaa83	0.13541608
99	0x3d83a60d	0.06428156
100	0xbd34b31f	-0.044116136
101	0x3dc36af9	0.09541888
102	0xbd350498	-0.044193834
103	0x3c67c834	0.014146853
104	0x3d65f8af	0.056145366
105	0x3d519e77	0.051176514
106	0xbd5b5014	-0.053543165
107	0xbd058943	-0.032601606
108	0xbdebd35f	-0.11514925
109	0x3c79c3a7	0.015244401
110	0xbcfd52e1	-0.030923309
111	0xbdd80b20	-0.10548997
112	0x3f01da44	0.5072367
113	0xbcd21e50	-0.02564922
114	0xbd963c5d	-0.07335732
115	0x3cd6ed95	0.026236335
116	0xbd8bb22e	-0.068210945
117	0x3d3088b8	0.043099135
118	0x3d95666b	0.07294925
119	0x3d18e6bf	0.03732943
120	0xbddd3ea7	-0.108029656
121	0x3e997299	0.29970244
122	0x3ce757e0	0.028240144
123	0xbdbe519a	-0.09292908
124	0xbcf680ee	-0.030090775
125	0x3d0144ad	0.031559635
126	0x3da32e9c	0.079678744
127	0x3dde54a9	0.108559914
128	0x3d258df0	0.040418565
129	0x3e0d9586	0.1382657
130	0x3ed67dc4	0.41892827
131	0x3e5d271a	0.21596947
132	0x3bb65310	0.005564101
133	0x3ddd072a	0.10792382
134	0xbcb1c3e3	-0.021699851
135	0x3a3b667b	0.00071487547
136	0x3e6a7b4d	0.22898598
137	0x3e2f70bc	0.17132849
138	0x3dc22edf	0.09481596
139	0x3e7d1023	0.24713187
140	0x3e1b1899	0.15146102
141	0x3d9b1c70	0.075737834
142	0x3e1bdab5	0.15220149
143	0x3d146518	0.036229223
144	0xbd04ab98	-0.032390207
145	0x3d32ecae	0.043682747
146	0x3dd95376	0.10611622
147	0xbd523cbb	-0.05132745
148	0xbd71af80	-0.05900526
149	0xbd0e7683	-0.03478099
150	0x3d875e35	0.066097654
151	0x3d94401a	0.07238789
152	0xbd5c378d	-0.053763915
153	0x3d82eac5	0.06392435
154	0xbea027fe	-0.31280512
155	0xbe1c3dfe	-0.15258023
156	0x3e508058	0.2036146
157	0x3998cf41	0.00029146115
158	0x3f0b4ca6	0.5441383
159	0xbe289b42	-0.16465476
160	0x3e50de4b	0.20397298
161	0xbefe2ced	-0.4964365
162	0x3dfa4f5f	0.1222217
163	0x3e4a279d	0.19741674
164	0x3e85a4f4	0.26102412
165	0x3e1df8dd	0.15426965
166	0x3e5c7a25	0.2153097
167	0x3de457e0	0.11149573
168	0x3dedcc5a	0.116112426
169	0x3e270551	0.16310622
170	0x3c757d51	0.014983491
171	0x3dac0382	0.083991066
172	0x3dada8a5	0.08479432
173	0x3ddaf70c	0.10691652
174	0x3e6e7a5a	0.23288861
175	0x3dceba5d	0.1009414
176	0x3e0bdfc4	0.13659579
177	0x3dc7e71c	0.097608775
178	0x3e0318e6	0.12802467
179	0x3da6e1e2	0.081485525
180	0x3db0c1b3	0.08630695
181	0x3c7a6720	0.015283376
182	0x3dac35b4	0.084086806
183	0xbc81fac0	-0.015866637
184	0x3d7a0989	0.06104425
185	0xbc9e7eb5	-0.019347528
186	0xbc6ba52b	-0.014382641
187	0x3d98f436	0.074684545
188	0x3da8b0d5	0.08236853
189	0x3e811e5a	0.2521847
190	0x3ec0ada0	0.37632465
191	0x3e8c91da	0.27455026
192	0x3e8033be	0.25039476
193	0x3e4f5387	0.20246707
194	0x3e465935	0.19369967
195	0x3e91cc56	0.28476208
196	0x3ea3df2f	0.32006213
197	0x3ea933bb	0.3304728
198	0x3d825437	0.06363719
199	0x3e238e57	0.15972267
200	0x3dbfd031	0.09365881
201	0x3e2f538d	0.17121716
202	0x3d820c62	0.06350018
203	0x3e2a1221	0.16608478
204	0x3e0900bc	0.13379186
205	0x3e47612e	0.19470665
206	0x3e19fe56	0.15038428
207	0xbd958c99	-0.073022075
208	0x3dded698	0.10880774
209	0x3d58a53c	0.052891955
210	0x3ddf4417	0.10901659
211	0xbd8489ab	-0.064715706
212	0x3d1e005a	0.038574554
213	0x3d4ecf91	0.05049092
214	0xbc9e77c6	-0.019344222
215	0x3af2e9ea	0.0018532847
216	0x3d0d39a6	0.034478806
217	0x3e183e48	0.14867508
218	0x3da673c9	0.08127553
219	0x3e5b26c9	0.21401514
220	0x3f296ec7	0.6618466
221	0x3db81a71	0.08989418
222	0x3d7347c7	0.059394624
223	0x3e71af86	0.23602113
224	0x3bb73fec	0.005592337
225	0xbd42a561	-0.047521
226	0xbd046bb4	-0.032329276
227	0x3d291fa3	0.041289937
228	0xbd6f358e	-0.058400683
229	0x3ea65b6c	0.32491624
230	0x3d1656e5	0.036703963
231	0xbe5fbb32	-0.21848753
232	0xbd9682de	-0.0734918
233	0xbda1aa8c	-0.07893857
234	0x3dc6e59a	0.09711762
235	0x3e108222	0.14112142
236	0x3d97f9bb	0.07420679
237	0x3dc918a8	0.09819156
238	0x3efd2346	0.49440974
239	0x3de404f4	0.11133757
240	0x3b4f479e	0.003162838
241	0x3e12339e	0.14277503
242	0xbc0bdd30	-0.008536622
243	0x3df68453	0.120369576
244	0x3e007346	0.12543973
245	0x3e334cd7	0.17509781
246	0x3e089d91	0.13341357
247	0x3e92a39c	0.2864045
248	0x3e581233	0.21100692
249	0x3e0f9fed	0.1402585
250	0x3e0faeb1	0.14031483
251	0xbd7dbdfa	-0.061948754
252	0xbd938c00	-0.07204437
253	0x3d4e28fd	0.05033206
254	0x3db9b8dd	0.09068463
255	0xbdba2e65	-0.0909088

conv5.bias f4 [3]
0	0x3e86bacd	0.26314393
1	0x3e5fb038	0.21844566
2	0x3e69b7b9	0.22823991

exp_avg f4 [3, 3, 1, 1]
0	0xbc919b71	-0.017774316
1	0xbca7e523	-0.020495003
2	0xbca9eb20	-0.020742
3	0x3abc2327	0.0014353738
4	0x3ab934a9	0.0014130074
5	0x3adc5104	0.0016808813
6	0x3af0253d	0.0018321645
7	0x3aeb91e6	0.0017972558
8	0x3ae6f582	0.0017620774

exp_avg_sq f4 [3, 3, 1, 1]
0	0x3c810496	0.015749257
1	0x3c9cdfac	0.019149624
2	0x3c9a8ecd	0.01886692
3	0x39d2e4bf	0.0004022475
4	0x3a05e7e4	0.0005108102
5	0x3a060a29	0.00051132083
6	0x3a17dc2b	0.00057930005
7	0x3a3a70df	0.0007112156
8	0x3a394f13	0.0007068973

exp_avg f4 [3]
0	0xbcba8d32	-0.022772405
1	0x3a8b3745	0.001062133
2	0x3a3b797f	0.0007151588

exp_avg_sq f4 [3]
0	0x3ceb9d11	0.028761419
1	0x3a348f32	0.0006887793
2	0x3a8ea9c9	0.001088434

exp_avg f4 [3, 3, 3, 3]
0	0x3832cc53	4.26288e-05
1	0x37357d80	1.0817661e-05
2	0x380ecc52	3.4045726e-05
3	0x37884403	1.6244134e-05
4	0xb718faa0	-9.118259e-06
5	0x3766d5c0	1.3758836e-05
6	0x38329b56	4.2583175e-05
7	0x37bf8c53	2.2834318e-05
8	0x382f5690	4.180387e-05
9	0x39081643	0.00012978264
10	0x38ab0c0d	8.15616e-05
11	0x38d6b6bf	0.00010238354
12	0x38cf74ba	9.892271e-05
13	0x3880904a	6.1303916e-05
14	0x38a067f5	7.648758e-05
15	0x3909caee	0.00013140935
16	0x38cf9432	9.898133e-05
17	0x38efa4da	0.00011427114
18	0xb9c0bee7	-0.00036763327
19	0xb9e07076	-0.000428084
20	0xb9d91e48	-0.00041412027
21	0xb9c82cc8	-0.00038180337
22	0xb9e4717c	-0.000435721
23	0xb9dc95b5	-0.0004207321
24	0xb9b01092	-0.00033581682
25	0xb9c7d34a	-0.0003811366
26	0xb9c28862	-0.00037104177
27	0x80000004	-6e-45
28	0x80000004	-6e-45
29	0x80000004	-6e-45
30	0x00000004	6e-45
31	0x80000004	-6e-45
32	0x80000004	-6e-45
33	0x80000004	-6e-45
34	0x80000004	-6e-45
35	0x80000004	-6e-45
36	0x00000004	6e-45
37	0x80000004	-6e-45
38	0x80000004	-6e-45
39	0x00000004	6e-45
40	0x80000004	-6e-45
41	0x80000004	-6e-45
42	0x80000004	-6e-45
43	0x80000004	-6e-45
44	0x80000004	-6e-45
45	0x80000004	-6e-45
46	0x80000004	-6e-45
47	0x80000004	-6e-45
48	0x80000004	-6e-45
49	0x80000004	-6e-45
50	0x80000004	-6e-45
51	0x80000004	-6e-45
52	0x80000004	-6e-45
53	0x80000004	-6e-45
54	0x3bd1a8fe	0.0063983193
55	0x3bd193cf	0.006395794
56	0x3bd42039	0.006473568
57	0x3bcc2844	0.006230386
58	0x3bd11731	0.0063809385
59	0x3bd4924a	0.0064871656
60	0x3bd1e916	0.00640596
61	0x3bd5aadd	0.0065206126
62	0x3bd59931	0.006518506
63	0x3c308d79	0.010775917
64	0x3c301d03	0.010749104
65	0x3c327259	0.01089152
66	0x3c2bb96e	0.010481222
67	0x3c3057e8	0.010763146
68	0x3c33d508	0.010976084
69	0x3c31e5f5	0.010858049
70	0x3c353ca1	0.011061818
71	0x3c35d01b	0.0110969795
72	0x3c3e5cb0	0.011618778
73	0x3c3f4e0e	0.0116763245
74	0x3c40cc82	0.011767508
75	0x3c3ad1b8	0.01140254
76	0x3c3e857b	0.011628504
77	0x3c401c8d	0.011725557
78	0x3c3d06a2	0.011537226
79	0x3c401f73	0.011726248
80	0x3c3fdec6	0.011710828

exp_avg_sq f4 [3, 3, 3, 3]
0	0x378837a7	1.6238379e-05
1	0x37875c62	1.6136273e-05
2	0x37886101	1.6257634e-05
3	0x37884d17	1.6248361e-05
4	0x3787058f	1.6095843e-05
5	0x3787ca7a	1.618754e-05
6	0x378960b3	1.6376702e-05
7	0x3787ec1b	1.62032e-05
8	0x378864b1	1.6259351e-05
9	0x3821fbab	3.8619775e-05
10	0x38217a6f	3.8499416e-05
11	0x3820dd29	3.8352944e-05
12	0x3823385e	3.8914724e-05
13	0x3822a348	3.8775877e-05
14	0x3821c93b	3.85728e-05
15	0x38240ff3	3.91155e-05
16	0x382349f0	3.8931088e-05
17	0x38225b6f	3.8708964e-05
18	0x38a3a947	7.803976e-05
19	0x38a34e52	7.787034e-05
20	0x38a46019	7.838029e-05
21	0x38a37360	7.793936e-05
22	0x38a2ac35	7.756838e-05
23	0x38a39487	7.800111e-05
24	0x38a410cd	7.823259e-05
25	0x38a325e0	7.7795004e-05
26	0x38a3c87b	7.809788e-05
27	0x2b5f7ff2	7.9403075e-13
28	0x2bd837b8	1.5363188e-12
29	0x2c12dda5	2.0870885e-12
30	0x2b1ab909	5.496858e-13
31	0x2b8dea26	1.0083642e-12
32	0x2bd2bf65	1.497452e-12
33	0x2a83288f	2.3298418e-13
34	0x2af002a1	4.2634388e-13
35	0x2b9238ea	1.0389721e-12
36	0x2c5e14ea	3.1559707e-12
37	0x2cdcde14	6.2774317e-12
38	0x2d17b1a5	8.622801e-12
39	0x2c1723e5	2.1478316e-12
40	0x2c8eca3e	4.058336e-12
41	0x2cd7a3c1	6.128848e-12
42	0x2b72b718	8.6229765e-13
43	0x2be84fad	1.6506706e-12
44	0x2c93af4d	4.1974536e-12
45	0x2b83ca1d	9.364208e-13
46	0x2bcd8d38	1.4605322e-12
47	0x2c005d58	1.824171e-12
48	0x2b50af2e	7.4139555e-13
49	0x2b99cabd	1.0927575e-12
50	0x2bca1921	1.4359938e-12
51	0x2b038210	4.6721047e-13
52	0x2b35b980	6.456155e-13
53	0x2b9e4d52	1.1248036e-12
54	0x3ac22c0b	0.0014814151
55	0x3ac67f6d	0.0015144177
56	0x3aca8897	0.0015452084
57	0x3abeb17e	0.0014548746
58	0x3ac0a950	0.0014698897
59	0x3ac5cde9	0.0015091273
60	0x3ab89cf8	0.0014084866
61	0x3aba48fa	0.0014212423
62	0x3ac0e38b	0.0014716251
63	0x3b678682	0.0035327976
64	0x3b6e7c3e	0.0036389972
65	0x3b753e5c	0.0037421202
66	0x3b61e74a	0.0034470134
67	0x3b653e10	0.003497962
68	0x3b6db0b8	0.0036268663
69	0x3b580fa6	0.0032968312
70	0x3b5adc4b	0.0033395465
71	0x3b658290	0.0035020448
72	0x3ba965c2	0.005169601
73	0x3bab56e1	0.0052288626
74	0x3bace7a7	0.0052766385
75	0x3ba80496	0.0051275
76	0x3ba901a2	0.0051576653
77	0x3bab0ab3	0.0052197813
78	0x3ba582a6	0.005050975
79	0x3ba6647b	0.005077896
80	0x3ba90cca	0.0051589953

exp_avg f4 [3]
0	0xbb2dc65a	-0.0026515932
1	0x80000004	-6e-45
2	0x3d139a20	0.036035657

exp_avg_sq f4 [3]
0	0x3acf049a	0.0015794218
1	0x2da408c6	1.8648538e-11
2	0x3d8290e7	0.06375294

exp_avg f4 [3, 6, 5, 5]
0	0xb65f55f0	-3.3279612e-06
1	0x3600e7d2	1.9208424e-06
2	0xb7208861	-9.568496e-06
3	0xb757d908	-1.286553e-05
4	0xb3babb6a	-8.6953904e-08
5	0xb7d83af8	-2.5776666e-05
6	0xb7b48ec3	-2.152415e-05
7	0xb81da25f	-3.7582937e-05
8	0xb80ec30e	-3.4037097e-05
9	0xb754cc2f	-1.2683725e-05
10	0xb7de113e	-2.6472491e-05
11	0xb7eddbe4	-2.8354996e-05
12	0xb82cf8fc	-4.123988e-05
13	0xb812f5e7	-3.5038127e-05
14	0xb7838b14	-1.568118e-05
15	0xb7a6d15c	-1.9886233e-05
16	0xb7efc7dd	-2.8584089e-05
17	0xb812f670	-3.5038625e-05
18	0xb8003258	-3.0564464e-05
19	0xb76746c9	-1.3785154e-05
20	0xb7a9bf3f	-2.0235426e-05
21	0xb798d985	-1.8221102e-05
22	0xb7ae8b95	-2.0807414e-05
23	0xb7ac6801	-2.0552428e-05
24	0xb6cc0fdc	-6.08152e-06
25	0xb7bb96b4	-2.2362314e-05
26	0x354e6c68	7.689873e-07
27	0xb74204d8	-1.1564429e-05
28	0xb7ff3a31	-3.0425466e-05
29	0xb7945120	-1.7680752e-05
30	0xb860734b	-5.3513137e-05
31	0xb7caa368	-2.4156368e-05
32	0xb812fa86	-3.504243e-05
33	0xb8395361	-4.418509e-05
34	0xb7e9904f	-2.7842963e-05
35	0xb8204cc0	-3.821845e-05
36	0xb7363160	-1.0859541e-05
37	0xb7687254	-1.3854897e-05
38	0xb7bc4ba7	-2.2446575e-05
39	0xb79da01e	-1.8790419e-05
40	0xb80992ff	-3.2800246e-05
41	0xb7bd6a62	-2.2580094e-05
42	0xb7a661e7	-1.9834331e-05
43	0xb7e67cb2	-2.7476202e-05
44	0xb7b67b10	-2.1753396e-05
45	0xb86146c0	-5.371007e-05
46	0xb81bfffe	-3.719329e-05
47	0xb7f3cc78	-2.906307e-05
48	0xb8095d91	-3.2750486e-05
49	0xb7913dda	-1.7314149e-05
50	0xb7886695	-1.6260232e-05
51	0x3644a455	2.930193e-06
52	0xb7991a21	-1.8251189e-05
53	0xb76d6d44	-1.4151741e-05
54	0xb7884d0b	-1.624834e-05
55	0xb79a8954	-1.8422179e-05
56	0x35785674	9.2513005e-07
57	0xb7e95fb9	-2.7820339e-05
58	0xb798ae08	-1.8200852e-05
59	0xb742f406	-1.1620117e-05
60	0xb8083a5a	-3.247927e-05
61	0xb7c5cb8b	-2.3579012e-05
62	0xb850c6cd	-4.9776212e-05
63	0xb815f06c	-3.574828e-05
64	0xb7ebcda6	-2.8109946e-05
65	0xb7fab8e7	-2.9888424e-05
66	0xb7f9f7a4	-2.979843e-05
67	0xb842dea9	-4.6460573e-05
68	0xb80bf2c9	-3.3366294e-05
69	0xb7e59280	-2.7367147e-05
70	0xb839c6b6	-4.42925e-05
71	0xb80cf0a3	-3.360271e-05
72	0xb8444082	-4.679012e-05
73	0xb8250239	-3.9341136e-05
74	0xb80f34d6	-3.4143064e-05
75	0xb8b372a2	-8.556737e-05
76	0xb8b629c2	-8.686214e-05
77	0xb8e5b131	-0.000109525754
78	0xb8bbfc5b	-8.96386e-05
79	0xb8e6865b	-0.0001099228
80	0xb86b4dc9	-5.610081e-05
81	0xb8544e63	-5.0617742e-05
82	0xb894f5f2	-7.103001e-05
83	0xb84ad4ed	-4.8358856e-05
84	0xb88e5f6e	-6.788863e-05
85	0xb88866c8	-6.50413e-05
86	0xb8800727	-6.104848e-05
87	0xb8b4b203	-8.616226e-05
88	0xb8802056	-6.109539e-05
89	0xb8abf69b	-8.199849e-05
90	0xb8513fdf	-4.9888968e-05
91	0xb8541ed5	-5.0573453e-05
92	0xb8a15b1c	-7.694049e-05
93	0xb85d533d	-5.2768028e-05
94	0xb899e197	-7.337628e-05
95	0xb842f04b	-4.6476995e-05
96	0xb8475948	-4.7528447e-05
97	0xb89471fd	-7.078422e-05
98	0xb8555291	-5.0860053e-05
99	0xb896f525	-7.198219e-05
100	0x80000004	-6e-45
101	0x80000004	-6e-45
102	0x80000004	-6e-45
103	0x80000004	-6e-45
104	0x80000004	-6e-45
105	0x00000004	6e-45
106	0x00000004	6e-45
107	0x80000004	-6e-45
108	0x80000004	-6e-45
109	0x80000004	-6e-45
110	0x00000004	6e-45
111	0x00000004	6e-45
112	0x00000004	6e-45
113	0x80000004	-6e-45
114	0x80000004	-6e-45
115	0x00000004	6e-45
116	0x00000004	6e-45
117	0x00000004	6e-45
118	0x80000004	-6e-45
119	0x80000004	-6e-45
120	0x00000004	6e-45
121	0x00000004	6e-45
122	0x00000004	6e-45
123	0x80000004	-6e-45
124	0x80000004	-6e-45
125	0xb783894a	-1.5680347e-05
126	0xb720adcb	-9.5772075e-06
127	0xb7760e60	-1.466609e-05
128	0xb71b8feb	-9.272228e-06
129	0xb737ca94	-1.0954816e-05
130	0xb7857830	-1.5910802e-05
131	0xb70f07ee	-8.5253105e-06
132	0xb761e47c	-1.3464243e-05
133	0xb750add2	-1.2438237e-05
134	0xb74b37fd	-1.2112779e-05
135	0xb7d6d7bd	-2.5611249e-05
136	0xb746e24c	-1.18544085e-05
137	0xb78ed3b3	-1.70263e-05
138	0xb77a4a31	-1.4918435e-05
139	0xb7610134	-1.3411325e-05
140	0xb7a1ab23	-1.9272387e-05
141	0xb70a7dad	-8.254702e-06
142	0xb7967a4a	-1.7938339e-05
143	0xb7813fae	-1.5407652e-05
144	0xb75def77	-1.3228381e-05
145	0xb7c69f33	-2.3677572e-05
146	0xb7959f2f	-1.783631e-05
147	0xb7d5fcab	-2.5509236e-05
148	0xb7bfe7c2	-2.2876895e-05
149	0xb7ac5d29	-2.0547379e-05
150	0xb908ea05	-0.0001305715
151	0xb9091755	-0.0001307403
152	0xb90fe5c6	-0.0001372314
153	0xb9101a82	-0.00013742785
154	0xb9146d66	-0.00014155134
155	0xb90e6d79	-0.00013582957
156	0xb9104176	-0.00013757296
157	0xb917b825	-0.00014469081
158	0xb917e485	-0.00014485612
159	0xb91bd413	-0.00014860956
160	0xb92044c9	-0.00015284414
161	0xb9228e74	-0.00015502592
162	0xb92a5e03	-0.00016247485
163	0xb92aae46	-0.00016277385
164	0xb92e7b3f	-0.00016639846
165	0xb91f31f9	-0.00015182038
166	0xb921bd53	-0.00015424685
167	0xb92a1c38	-0.00016222976
168	0xb92ac64f	-0.00016286339
169	0xb92ef208	-0.00016684097
170	0xb91f614f	-0.00015199672
171	0xb921f2f2	-0.0001544466
172	0xb92af195	-0.0001630246
173	0xb92c33d8	-0.00016422512
174	0xb931b295	-0.00016946562
175	0xb9674a4f	-0.00022057559
176	0xb962a02b	-0.00021612707
177	0xb969ac73	-0.00022284854
178	0xb968e551	-0.00022210671
179	0xb97368b9	-0.00023213298
180	0xb96d0ee3	-0.00022607627
181	0xb96ce982	-0.00022593702
182	0xb975d817	-0.0002344552
183	0xb9751b0d	-0.00023375098
184	0xb97eb20c	-0.00024289655
185	0xb9857dc2	-0.00025461434
186	0xb9862f8f	-0.00025593906
187	0xb98b2f9e	-0.00026547624
188	0xb98b0bd3	-0.00026520956
189	0xb98fa832	-0.000274004
190	0xb98455a8	-0.0002524082
191	0xb9856dc5	-0.00025449521
192	0xb98b33a1	-0.00026550613
193	0xb98b8268	-0.00026609306
194	0xb9908ba3	-0.00027569858
195	0xb9849481	-0.00025287646
196	0xb985baca	-0.00025506906
197	0xb98c5d8f	-0.00026772587
198	0xb98d7a5b	-0.00026984778
199	0xb99437d4	-0.00028270355
200	0xb9572006	-0.00020515927
201	0xb95a5b8b	-0.00020824203
202	0xb9685bd7	-0.00022159457
203	0xb9686a86	-0.00022164927
204	0xb96bf93d	-0.00022504195
205	0xb9637935	-0.0002169356
206	0xb9681f95	-0.0002213701
207	0xb976b59b	-0.00023528041
208	0xb976be3d	-0.00023531257
209	0xb979f9de	-0.00023839573
210	0xb981fd0e	-0.00024793338
211	0xb9848836	-0.00025278487
212	0xb98bfc37	-0.0002670006
213	0xb98c07a3	-0.0002670857
214	0xb98d8d67	-0.0002699897
215	0xb9818437	-0.00024703305
216	0xb9842c4f	-0.00025210014
217	0xb98bddde	-0.0002667745
218	0xb98c0f61	-0.0002671434
219	0xb98dbbeb	-0.00027033626
220	0xb9818ee4	-0.0002471126
221	0xb9843b5c	-0.00025221228
222	0xb98c31e4	-0.00026740052
223	0xb98ca440	-0.00026825257
224	0xb98edd32	-0.00027249154
225	0xb818f027	-3.6463283e-05
226	0xb84f63ea	-4.9445698e-05
227	0xb880f9e2	-6.15006e-05
228	0xb878c0ed	-5.9307484e-05
229	0xb84d1137	-4.889184e-05
230	0xb87ecde7	-6.075008e-05
231	0xb8958b44	-7.130814e-05
232	0xb8acbb05	-8.236434e-05
233	0xb8a8c6c7	-8.0478894e-05
234	0xb894931f	-7.0845934e-05
235	0xb8b165ef	-8.459004e-05
236	0xb8c3d269	-9.3375165e-05
237	0xb8d7ce4a	-0.00010290423
238	0xb8d2ee3f	-0.00010057957
239	0xb8bf3960	-9.118277e-05
240	0xb89b2e74	-7.3996285e-05
241	0xb8ab578d	-8.170223e-05
242	0xb8bd6ddd	-9.032686e-05
243	0xb8b73ebe	-8.737807e-05
244	0xb8a270d3	-7.745777e-05
245	0xb89c0f73	-7.441537e-05
246	0xb8aa6821	-8.125627e-05
247	0xb8b9ca31	-8.8591485e-05
248	0xb8b01543	-8.396294e-05
249	0xb8981c07	-7.253145e-05
250	0x00000004	6e-45
251	0x00000004	6e-45
252	0x00000004	6e-45
253	0x00000004	6e-45
254	0x00000004	6e-45
255	0x00000004	6e-45

exp_avg_sq f4 [3, 6, 5, 5]
0	0x352e536e	6.494146e-07
1	0x352a5b80	6.3463085e-07
2	0x3528fc8d	6.2952387e-07
3	0x352ad79e	6.36437e-07
4	0x352e5bff	6.4953923e-07
5	0x352ae501	6.366318e-07
6	0x35258c9d	6.167191e-07
7	0x35233fe4	6.0815205e-07
8	0x352535f3	6.1545796e-07
9	0x3529ffbd	6.3329554e-07
10	0x352998fe	6.318004e-07
11	0x3523e068	6.1048786e-07
12	0x35216ca8	6.013529e-07
13	0x3523ac5a	6.0973036e-07
14	0x35294380	6.305563e-07
15	0x352b8e82	6.390984e-07
16	0x3526a77d	6.2083546e-07
17	0x3524b86a	6.136312e-07
18	0x3526ea4b	6.218076e-07
19	0x352c2a33	6.41364e-07
20	0x35314644	6.603989e-07
21	0x352dec4d	6.4791385e-07
22	0x352c2b6c	6.413818e-07
23	0x352d378e	6.4528365e-07
24	0x3530c4cd	6.585149e-07
25	0x3518df88	5.6949693e-07
26	0x35110518	5.402412e-07
27	0x350df7ad	5.288701e-07
28	0x3510d0a8	5.3947815e-07
29	0x351701c7	5.625447e-07
30	0x3512721b	5.4555284e-07
31	0x3508a539	5.090438e-07
32	0x35046995	4.9327474e-07
33	0x35074ba2	5.040148e-07
34	0x350f0107	5.3273146e-07
35	0x350ff4d6	5.3627934e-07
36	0x35062b1c	4.998162e-07
37	0x3501db7d	4.837564e-07
38	0x3504df1c	4.94985e-07
39	0x350dd95e	5.2842904e-07
40	0x3513f7b0	5.51222e-07
41	0x350af646	5.176738e-07
42	0x35071e2e	5.0335336e-07
43	0x350a693d	5.156215e-07
44	0x35139023	5.4971514e-07
45	0x351f60cd	5.937298e-07
46	0x35181875	5.666e-07
47	0x351429cc	5.519512e-07
48	0x3516117f	5.5904815e-07
49	0x351d0357	5.849192e-07
50	0x368119cb	3.8475023e-06
51	0x36806ebd	3.827589e-06
52	0x368045c1	3.8228177e-06
53	0x3680ba6c	3.8363996e-06
54	0x36815bb2	3.8551743e-06
55	0x36808126	3.829732e-06
56	0x367ee622	3.7982904e-06
57	0x367de960	3.783578e-06
58	0x367eefeb	3.79886e-06
59	0x368083f1	3.8300573e-06
60	0x36804024	3.822164e-06
61	0x367e230a	3.7869345e-06
62	0x367d20e3	3.771908e-06
63	0x367e522f	3.7896787e-06
64	0x3680770f	3.8285575e-06
65	0x36808b72	3.830931e-06
66	0x367f47ee	3.803983e-06
67	0x367e9eca	3.7941377e-06
68	0x367fbe7f	3.8108844e-06
69	0x36810d9a	3.846083e-06
70	0x368187d3	3.8603116e-06
71	0x36811b5b	3.847684e-06
72	0x3680d846	3.839875e-06
73	0x36810773	3.845367e-06
74	0x3681ae3c	3.864783e-06
75	0x36b3e60e	5.3613976e-06
76	0x36b719ff	5.4568513e-06
77	0x36b800bd	5.4837133e-06
78	0x36b67555	5.437682e-06
79	0x36b3fa3d	5.3637473e-06
80	0x36b6d474	5.4487555e-06
81	0x36bb1427	5.5753803e-06
82	0x36bc7ea3	5.617579e-06
83	0x36bac78b	5.566462e-06
84	0x36b79ccc	5.4720786e-06
85	0x36b8c33e	5.5063565e-06
86	0x36bdbe8a	5.6548206e-06
87	0x36bfba0c	5.7139023e-06
88	0x36bddef0	5.6585923e-06
89	0x36ba00ee	5.54334e-06
90	0x36b7a385	5.472861e-06
91	0x36bc8de1	5.6193535e-06
92	0x36beb80c	5.683867e-06
93	0x36bd0007	5.632642e-06
94	0x36b8e353	5.5100913e-06
95	0x36b33bae	5.3415633e-06
96	0x36b74f29	5.4630405e-06
97	0x36b94558	5.5215023e-06
98	0x36b7efde	5.481749e-06
99	0x36b46bc2	5.3769627e-06
100	0x27a93618	4.696557e-15
101	0x27a807c1	4.6637774e-15
102	0x27a0592c	4.45056e-15
103	0x27ba3ef1	5.169361e-15
104	0x27bdfa01	5.2729093e-15
105	0x27b10040	4.912764e-15
106	0x27b2268e	4.9446726e-15
107	0x27ac9c81	4.790927e-15
108	0x27c89305	5.567055e-15
109	0x27d0c2a8	5.7942644e-15
110	0x27ae466d	4.8371057e-15
111	0x27b10896	4.9136678e-15
112	0x27b28bf3	4.9556658e-15
113	0x27cb759f	5.6471344e-15
114	0x27d37204	5.868788e-15
115	0x27bc1d7a	5.221244e-15
116	0x27bf8c14	5.3165022e-15
117	0x27bedd38	5.297544e-15
118	0x27d04ec8	5.781701e-15
119	0x27cecd40	5.739902e-15
120	0x27bafbc1	5.1898323e-15
121	0x27c10fe5	5.3585494e-15
122	0x27bae3f6	5.1872526e-15
123	0x27cc6e0d	5.674069e-15
124	0x27ca4415	5.6140077e-15
125	0x33acc1ac	8.044603e-08
126	0x33bae70e	8.7033285e-08
127	0x33d18ac4	9.757562e-08
128	0x33dd4e35	1.030534e-07
129	0x33d85020	1.00728585e-07
130	0x33a546a5	7.6962614e-08
131	0x33b108f6	8.243835e-08
132	0x33c8b427	9.345995e-08
133	0x33d65037	9.9797425e-08
134	0x33d15045	9.746922e-08
135	0x33992c9f	7.132734e-08
136	0x339eebe9	7.40036e-08
137	0x33b25743	8.304644e-08
138	0x33c10c26	8.9894726e-08
139	0x33c12034	8.9931206e-08
140	0x338d4f83	6.580287e-08
141	0x338edd5f	6.6526574e-08
142	0x339d53c9	7.3261226e-08
143	0x33ad79e8	8.078115e-08
144	0x33b3ebeb	8.37825e-08
145	0x338c9627	6.5465706e-08
146	0x338caec2	6.551046e-08
147	0x33994e0e	7.138816e-08
148	0x33a8af8e	7.855043e-08
149	0x33b0fa30	8.2411475e-08
150	0x368c3318	4.1782732e-06
151	0x368cb88a	4.1938083e-06
152	0x368d786c	4.2161464e-06
153	0x368d7547	4.2157803e-06
154	0x368d0287	4.2024217e-06
155	0x368d2a30	4.2070387e-06
156	0x368d8a2c	4.218213e-06
157	0x368e3d04	4.239033e-06
158	0x368e3ba1	4.2388715e-06
159	0x368dca4a	4.225677e-06
160	0x368e582d	4.242195e-06
161	0x368eaa43	4.251751e-06
162	0x368f5345	4.271426e-06
163	0x368f4a4a	4.2703805e-06
164	0x368ed905	4.257194e-06
165	0x368e96c2	4.2494803e-06
166	0x368ee9e1	4.259157e-06
167	0x368f8238	4.2768916e-06
168	0x368f6abf	4.274159e-06
169	0x368eef3e	4.2597812e-06
170	0x368eca86	4.2555066e-06
171	0x368f2cb5	4.2669367e-06
172	0x368fb702	4.283037e-06
173	0x368f8836	4.277589e-06
174	0x368eedb9	4.2596043e-06
175	0x3735984a	1.0823898e-05
176	0x373654a6	1.0867754e-05
177	0x37376c62	1.0932885e-05
178	0x373770c6	1.0933907e-05
179	0x3736abf5	1.0888082e-05
180	0x37370368	1.0908443e-05
181	0x373778b3	1.09357525e-05
182	0x3738765a	1.09948105e-05
183	0x37387ebf	1.0996765e-05
184	0x3737bcad	1.09515795e-05
185	0x37389d59	1.100389e-05
186	0x3738f5a8	1.1024451e-05
187	0x3739dcde	1.1078284e-05
188	0x3739d652	1.107676e-05
189	0x37391495	1.1031651e-05
190	0x373921b2	1.1034705e-05
191	0x37397cdb	1.10559295e-05
192	0x373a446a	1.1102393e-05
193	0x373a222a	1.1094418e-05
194	0x37394bdb	1.1044521e-05
195	0x37399de3	1.106362e-05
196	0x373a1741	1.1091878e-05
197	0x373ac3b6	1.1132031e-05
198	0x373a7403	1.1113475e-05
199	0x373961dd	1.1049645e-05
200	0x3729dedb	1.0125073e-05
201	0x372a663e	1.0156595e-05
202	0x372b3a05	1.0205903e-05
203	0x372b390b	1.0205676e-05
204	0x372af092	1.0188802e-05
205	0x372acdf0	1.0180738e-05
206	0x372b3daf	1.0206756e-05
207	0x372c0ab9	1.02544955e-05
208	0x372c0af8	1.0254553e-05
209	0x372bc3d3	1.0237988e-05
210	0x372c3a7f	1.0265619e-05
211	0x372ca2d8	1.0289914e-05
212	0x372d6cbd	1.0336921e-05
213	0x372d67f4	1.0335807e-05
214	0x372d20ab	1.031921e-05
215	0x372c641c	1.0275307e-05
216	0x372ccd1e	1.02997565e-05
217	0x372d8c9d	1.0344343e-05
218	0x372d7ed7	1.0341136e-05
219	0x372d30bd	1.0322951e-05
220	0x372c88c6	1.0283844e-05
221	0x372cfb93	1.0310573e-05
222	0x372db24c	1.03531165e-05
223	0x372d955d	1.034638e-05
224	0x372d3303	1.0323481e-05
225	0x3528842e	6.2777224e-07
226	0x35277e53	6.2396174e-07
227	0x3527a908	6.245832e-07
228	0x352877c2	6.275915e-07
229	0x352b8222	6.389183e-07
230	0x352749d6	6.2319793e-07
231	0x3526c4d1	6.2126225e-07
232	0x352723bd	6.2264354e-07
233	0x3527c036	6.249205e-07
234	0x352a907f	6.3540205e-07
235	0x35286b21	6.274077e-07
236	0x352872b0	6.275177e-07
237	0x35294e87	6.307168e-07
238	0x3529f1d8	6.3309335e-07
239	0x352c967c	6.4293977e-07
240	0x3525a3f8	6.1705896e-07
241	0x3525ea14	6.180792e-07
242	0x35270cd1	6.2231e-07
243	0x3527eca3	6.25567e-07
244	0x352ac497	6.361601e-07
245	0x35247065	6.1258316e-07
246	0x3524c9fd	6.138869e-07
247	0x35263f0b	6.193156e-07
248	0x35278b00	6.241462e-07
249	0x352ab732	6.359652e-07
250	0x278a1523	3.832561e-15
251	0x276f0fa9	3.3176402e-15
252	0x2753f311	2.9413899e-15
253	0x275a4a38	3.0293811e-15
254	0x27631614	3.1514547e-15
255	0x2798ad11	4.2376114e-15

exp_avg f4 [3]
0	0xb9f8f239	-0.00047482716
1	0xba495fa6	-0.0007681794
2	0xbbb809f8	-0.0056164227

exp_avg_sq f4 [3]
0	0x38cc4610	9.740528e-05
1	0x38c44ee8	9.360706e-05
2	0x3ac60d7b	0.0015110219

exp_avg f4 [3, 6, 7, 7]
0	0xb8161803	-3.578515e-05
1	0xb8286d2c	-4.0155996e-05
2	0xb83c7440	-4.493096e-05
3	0xb84a8c23	-4.8291065e-05
4	0xb825db21	-3.9543145e-05
5	0xb7fe84a3	-3.0340923e-05
6	0xb7bec2b3	-2.2740429e-05
7	0xb8319431	-4.2338103e-05
8	0xb8421385	-4.6271383e-05
9	0xb8559216	-5.091921e-05
10	0xb862746f	-5.3991036e-05
11	0xb83c29c3	-4.4861587e-05
12	0xb812cbe1	-3.499899e-05
13	0xb7e1d28b	-2.6920132e-05
14	0xb854d441	-5.0742416e-05
15	0xb862f9a7	-5.4115106e-05
16	0xb874ea18	-5.839215e-05
17	0xb88081f8	-6.127724e-05
18	0xb85b0005	-5.2213687e-05
19	0xb82fdf7f	-4.19314e-05
20	0xb80b65df	-3.3235057e-05
21	0xb86265f0	-5.3977536e-05
22	0xb86eff2b	-5.6981266e-05
23	0xb87e411f	-6.0618968e-05
24	0xb883af63	-6.279235e-05
25	0xb860c43b	-5.3588516e-05
26	0xb834e101	-4.3124895e-05
27	0xb8110657	-3.45766e-05
28	0xb8506b7c	-4.9691167e-05
29	0xb85d6c7f	-5.279155e-05
30	0xb86cd4d9	-5.6465014e-05
31	0xb875a586	-5.8566708e-05
32	0xb84c0b81	-4.8648104e-05
33	0xb81d9797	-3.7572896e-05
34	0xb7efd34e	-2.8589417e-05
35	0xb836ae2a	-4.3554384e-05
36	0xb84181bc	-4.613561e-05
37	0xb84e621c	-4.92056e-05
38	0xb8550cfc	-5.079525e-05
39	0xb829c21f	-4.047353e-05
40	0xb7f8ad83	-2.9644701e-05
41	0xb7af3087	-2.0884223e-05
42	0xb8267549	-3.9686714e-05
43	0xb82fd1c1	-4.19186e-05
44	0xb83c54eb	-4.490178e-05
45	0xb84451a9	-4.6806093e-05
46	0xb818f87e	-3.647105e-05
47	0xb7d53f70	-2.5421119e-05
48	0xb788a59d	-1.6289583e-05
49	0x80000004	-6e-45
50	0x80000004	-6e-45
51	0x80000004	-6e-45
52	0x80000004	-6e-45
53	0x80000004	-6e-45
54	0x80000004	-6e-45
55	0x80000004	-6e-45
56	0x80000004	-6e-45
57	0x80000004	-6e-45
58	0x80000004	-6e-45
59	0x80000004	-6e-45
60	0x80000004	-6e-45
61	0x80000004	-6e-45
62	0x80000004	-6e-45
63	0x80000004	-6e-45
64	0x00000004	6e-45
65	0x00000004	6e-45
66	0x00000004	6e-45
67	0x80000004	-6e-45
68	0x80000004	-6e-45
69	0x80000004	-6e-45
70	0x80000004	-6e-45
71	0x00000004	6e-45
72	0x00000004	6e-45
73	0x00000004	6e-45
74	0x80000004	-6e-45
75	0x80000004	-6e-45
76	0x80000004	-6e-45
77	0x80000004	-6e-45
78	0x00000004	6e-45
79	0x00000004	6e-45
80	0x00000004	6e-45
81	0x80000004	-6e-45
82	0x80000004	-6e-45
83	0x80000004	-6e-45
84	0x00000004	6e-45
85	0x80000004	-6e-45
86	0x00000004	6e-45
87	0x80000004	-6e-45
88	0x80000004	-6e-45
89	0x80000004	-6e-45
90	0x80000004	-6e-45
91	0x80000004	-6e-45
92	0x00000004	6e-45
93	0x00000004	6e-45
94	0x80000004	-6e-45
95	0x80000004	-6e-45
96	0x80000004	-6e-45
97	0x80000004	-6e-45
98	0x358be82a	1.0423876e-06
99	0x33c776f5	9.288298e-08
100	0xb5d4bf6a	-1.585094e-06
101	0xb61bdc74	-2.322512e-06
102	0xb5be71ff	-1.418928e-06
103	0xb5892259	-1.0217292e-06
104	0xb4d021dc	-3.8767655e-07
105	0x35410502	7.190539e-07
106	0xb45ae59f	-2.0386368e-07
107	0xb5c48176	-1.4640816e-06
108	0xb606887e	-2.0047005e-06
109	0xb57ee663	-9.495763e-07
110	0xb57973f0	-9.292844e-07
111	0xb514b9a8	-5.540446e-07
112	0x34e333ca	4.2319726e-07
113	0xb54049fb	-7.163323e-07
114	0xb5fa6a6c	-1.8657424e-06
115	0xb61e5b3e	-2.3596945e-06
116	0xb58e73c2	-1.0613514e-06
117	0xb5a3349c	-1.2159758e-06
118	0xb5275a5e	-6.234385e-07
119	0xb61c9a1a	-2.333551e-06
120	0xb6606ede	-3.3443134e-06
121	0xb68f13d1	-4.264039e-06
122	0xb694eb0a	-4.438106e-06
123	0xb655572d	-3.1790216e-06
124	0xb66ddfee	-3.5446096e-06
125	0xb65cef96	-3.2922012e-06
126	0xb615a03b	-2.2295997e-06
127	0xb6462d24	-2.9530574e-06
128	0xb68af03c	-4.1406875e-06
129	0xb6a6cf97	-4.971352e-06
130	0xb6936cfe	-4.3936298e-06
131	0xb69bece5	-4.646938e-06
132	0xb68d64db	-4.2138686e-06
133	0x353eff98	7.1152454e-07
134	0xb40b18ac	-1.295436e-07
135	0xb5dc8407	-1.6429702e-06
136	0xb62937a4	-2.521535e-06
137	0xb6059fb5	-1.9911506e-06
138	0xb60299fe	-1.9461145e-06
139	0xb5afd982	-1.3101819e-06
140	0x36832104	3.9079478e-06
141	0x3644607a	2.9262433e-06
142	0x35dbc3e3	1.6373782e-06
143	0x3596bfa1	1.1231642e-06
144	0x35e66848	1.7166685e-06
145	0x35f5d10f	1.8314767e-06
146	0x362b5605	2.5531056e-06
147	0xb7aff7b9	-2.097698e-05
148	0xb7c6713a	-2.3656165e-05
149	0xb807a83c	-3.234319e-05
150	0xb831a921	-4.2357602e-05
151	0xb8186ba9	-3.633989e-05
152	0xb7e46569	-2.722694e-05
153	0xb7b386f9	-2.1401314e-05
154	0xb7d527ab	-2.541005e-05
155	0xb7ecdf08	-2.823725e-05
156	0xb819b758	-3.6648795e-05
157	0xb843da79	-4.669509e-05
158	0xb828e397	-4.026628e-05
159	0xb801baaa	-3.092984e-05
160	0xb7d10a5f	-2.4919571e-05
161	0xb8099446	-3.2801436e-05
162	0xb81463c6	-3.537887e-05
163	0xb83690c1	-4.3526994e-05
164	0xb861c018	-5.382308e-05
165	0xb8489aec	-4.7827998e-05
166	0xb8239f65	-3.9010676e-05
167	0xb80cdbcf	-3.3583314e-05
168	0xb8210612	-3.8391045e-05
169	0xb82ea293	-4.163624e-05
170	0xb8529b1d	-5.0212362e-05
171	0xb87e068b	-6.0564413e-05
172	0xb8638e89	-5.4253764e-05
173	0xb83d7556	-4.517039e-05
174	0xb826c8ac	-3.9764374e-05
175	0xb7f024d5	-2.862738e-05
176	0xb805e9b2	-3.1927317e-05
177	0xb82ae496	-4.0744046e-05
178	0xb85661c9	-5.1112645e-05
179	0xb83cfb60	-4.5056804e-05
180	0xb8183999	-3.6293266e-05
181	0xb8023ce2	-3.1051117e-05
182	0xb78d2a39	-1.6828171e-05
183	0xb7acee98	-2.0615102e-05
184	0xb7fa0f41	-2.9809426e-05
185	0xb82748d2	-3.9883722e-05
186	0xb80d9088	-3.3751625e-05
187	0xb7cf6228	-2.472203e-05
188	0xb7a3c9cd	-1.9525085e-05
189	0xb710b458	-8.625058e-06
190	0xb757e0eb	-1.2867366e-05
191	0xb7bf7571	-2.2823662e-05
192	0xb80bbf2b	-3.331822e-05
193	0xb7e675d2	-2.7473001e-05
194	0xb7995ee7	-1.8283214e-05
195	0xb75b242e	-1.3061841e-05
196	0xb6ca33bc	-6.026092e-06
197	0xb68f1d98	-4.2651773e-06
198	0xb68e2ad2	-4.2369147e-06
199	0xb690fa5b	-4.3206796e-06
200	0xb645bb7e	-2.9464422e-06
201	0xb683dfd1	-3.93016e-06
202	0xb6d305c8	-6.288963e-06
203	0xb69a46c6	-4.5977968e-06
204	0xb64c1b94	-3.0414421e-06
205	0xb6531b85	-3.1457469e-06
206	0xb654a5a2	-3.1686873e-06
207	0xb5e838d8	-1.7301891e-06
208	0xb62a21c5	-2.535163e-06
209	0xb699b369	-4.5806414e-06
210	0xb6ef27fb	-7.1274094e-06
211	0xb6bc78a3	-5.6168806e-06
212	0xb6bce390	-5.6293284e-06
213	0xb6b9dac2	-5.5388964e-06
214	0xb6865c88	-4.0042833e-06
215	0xb69ad770	-4.614638e-06
216	0xb6d671d0	-6.3909465e-06
217	0xb6e3ee57	-6.7928736e-06
218	0xb6b04588	-5.2533032e-06
219	0xb6aeb608	-5.2067953e-06
220	0xb6aa85eb	-5.081985e-06
221	0xb6686163	-3.462738e-06
222	0xb683b338	-3.924968e-06
223	0xb6b7c893	-5.477175e-06
224	0xb6930e0d	-4.382577e-06
225	0xb63ce455	-2.814709e-06
226	0xb63629ba	-2.7144401e-06
227	0xb62670f5	-2.4801677e-06
228	0xb5367bc9	-6.7980415e-07
229	0xb5816b4b	-9.642475e-07
230	0xb61bce52	-2.3216894e-06
231	0xb6b5211a	-5.398074e-06
232	0xb67582ed	-3.6584054e-06
233	0xb6688c9d	-3.4652542e-06
234	0xb6542a61	-3.161513e-06
235	0xb5a1968d	-1.2039251e-06
236	0xb5b7c31c	-1.3691347e-06
237	0xb634b107	-2.6925134e-06
238	0xb6f9f1d5	-7.4489312e-06
239	0xb6b3633a	-5.346167e-06
240	0xb6a45295	-4.8971947e-06
241	0xb695e168	-4.466787e-06
242	0xb6229b04	-2.4230112e-06
243	0xb63477f3	-2.689191e-06
244	0xb68e4f5f	-4.24117e-06
245	0xb901719f	-0.00012344726
246	0xb8f50888	-0.000116840994
247	0xb8f36fb6	-0.00011607951
248	0xb8f34464	-0.00011599882
249	0xb8e4cee4	-0.000109104236
250	0xb8e20094	-0.000107766275
251	0xb8ef5ae1	-0.000114133356
252	0xb8e64b88	-0.000109813234
253	0xb8d8e0b4	-0.00010341537
254	0xb8d8f649	-0.00010345557
255	0xb8da7013	-0.000104159255
