Interactive-Selection-for-Image-Dehazing-main/saved_models/49_best_model_2024-03-03_01-58-26.pth/AOD_49.pth (torch, 32754 bytes, 30 tensors)

conv1.weight f4 [3, 3, 1, 1]
0	0xbec05c9f	-0.37570664
1	0x3ee03ce0	0.43796444
2	0xbebbaf09	-0.3665698
3	0x3eb1a503	0.34696206
4	0xbec8eebb	-0.39244637
5	0x3e88565d	0.2662839
6	0xbd990c7b	-0.074730836
7	0x3e938a9f	0.28816697
8	0x3de4118a	0.11136158

conv1.bias f4 [3]
0	0xbea95cea	-0.330787
1	0xbe1163cb	-0.14198224
2	0x3c191e4b	0.009345601

conv2.weight f4 [3, 3, 3, 3]
0	0x3e37af3b	0.17937939
1	0xbe326787	-0.17422305
2	0x3de68b8e	0.11257087
3	0x3cdd4c70	0.027013987
4	0xbe3c3935	-0.18381198
5	0x3e403619	0.18770637
6	0xbd78068c	-0.06055312
7	0x3e00d3d5	0.12580808
8	0xbe273d31	-0.16331936
9	0xbeac57e6	-0.3366081
10	0xbe9974d5	-0.29971948
11	0xbecc270e	-0.39873546
12	0xbecb3f9f	-0.39696977
13	0xbe77babf	-0.24192332
14	0xbebe876e	-0.372127
15	0xbe3d4a9a	-0.1848549
16	0xbf02895d	-0.5099085
17	0xbeda9bca	-0.42696983
18	0xbdae565a	-0.08512564
19	0x3c4bc2e3	0.012436601
20	0x3dc8b0e7	0.097993664
21	0x3d251c2b	0.040310066
22	0xbd012f88	-0.03153947
23	0xbbb98d08	-0.005662564
24	0x3e69ee31	0.22844769
25	0x3e769da8	0.24083579
26	0x3dfad51a	0.12247677
27	0xbe08491c	-0.13309139
28	0x3dfcd3d2	0.12345089
29	0xbde5abec	-0.11214432
30	0xbc6e3c90	-0.014540806
31	0x3e196295	0.14979012
32	0x3d1f3a28	0.03887382
33	0x3df348ca	0.11879118
34	0xbdf874c1	-0.12131644
35	0x3da1f75a	0.07908507
36	0xbdf31656	-0.118694946
37	0x3d811ade	0.06303953
38	0x3e20f759	0.15719356
39	0x3e298051	0.16552855
40	0xbdbc2a39	-0.09187741
41	0xbdb640bf	-0.08899068
42	0x3d664c18	0.056224912
43	0xbd620920	-0.055184484
44	0x3d767a14	0.060175017
45	0xbd785efc	-0.06063746
46	0x3e23cd2d	0.15996237
47	0xbe42a25a	-0.19007245
48	0xbdfdc1ed	-0.12390504
49	0xbe2364ff	-0.15956496
50	0xbc108300	-0.008820295
51	0xbe273692	-0.1632941
52	0xbe2e8ac9	-0.1704513
53	0xbe170943	-0.14749627
54	0x3e3b4691	0.18288638
55	0x3dd84c2a	0.10561402
56	0x3d456a10	0.048196852
57	0xbd751894	-0.059837893
58	0x3c8f7870	0.017513484
59	0xbd06ca34	-0.03290768
60	0xbe33fc38	-0.17576683
61	0x3d954b2a	0.07289727
62	0x3c1f3fc0	0.009719789
63	0xbe8049f0	-0.2505641
64	0xbd8f0d94	-0.06985012
65	0xbee792d1	-0.452292
66	0xbee18210	-0.44044542
67	0xbe0f7058	-0.140077
68	0xbdffd5f0	-0.12491977
69	0xbe8025cf	-0.25028846
70	0xbdccafd7	-0.09994476
71	0xbed7470f	-0.420464
72	0x3e42ad17	0.19011341
73	0xbe27fb0d	-0.16404362
74	0x3e2341b1	0.15943028
75	0xbe057442	-0.1303263
76	0xbe26527e	-0.16242406
77	0xbdcb0915	-0.09913842
78	0x3df39d8e	0.118952855
79	0x3d7f2b89	0.062297378
80	0xbdc55ccd	-0.09636841

conv2.bias f4 [3]
0	0x3d5c3990	0.053765833
1	0xbd0cac90	-0.034344256
2	0x3e762201	0.24036409

conv3.weight f4 [3, 6, 5, 5]
0	0x3c109308	0.0088241175
1	0xbb75d100	-0.0037508607
2	0x3b8d2dc0	0.0043084323
3	0xbd9316ac	-0.07182059
4	0xbce236cc	-0.02761402
5	0x3d9815ac	0.074260086
6	0x3d8af28e	0.06784545
7	0x3d3f61fc	0.046724305
8	0x3d48b398	0.0489994
9	0x3d81a51a	0.06330319
10	0x3d19fd82	0.03759528
11	0x3c938d74	0.018011786
12	0xbd7bc7f5	-0.06146999
13	0x3d8b5088	0.068024695
14	0xbd1c0a62	-0.03809584
15	0x3d621270	0.055193365
16	0x3cac168c	0.021006845
17	0x3cdbb594	0.026819982
18	0xbd7d1c00	-0.06179428
19	0x3c9b9ba4	0.018995114
20	0x3d4a47b8	0.049384803
21	0x3d528994	0.051400736
22	0xbcc37232	-0.023858164
23	0x3d9ba2da	0.07599421
24	0xbd63d3a4	-0.055621758
25	0xbf5bb9e5	-0.8583053
26	0xbf4174c5	-0.755688
27	0xbf2e9e2f	-0.6821012
28	0xbf3b1065	-0.7307189
29	0xbf384b69	-0.71990067
30	0xbf56590c	-0.83729625
31	0xbf14a23a	-0.5806004
32	0xbf32f539	-0.6990543
33	0xbf2500f8	-0.64454603
34	0xbf283abb	-0.65714616
35	0xbf3e23ca	-0.7427336
36	0xbf399037	-0.7248568
37	0xbf2729a0	-0.6529789
38	0xbf24d779	-0.64391285
39	0xbf2dc430	-0.67877483
40	0xbf56e9fb	-0.83950776
41	0xbf2daad0	-0.67838764
42	0xbf0d9964	-0.5531218
43	0xbf0bb381	-0.54570776
44	0xbf176fcd	-0.5915497
45	0xbf4c0014	-0.7968762
46	0xbf3efcb5	-0.7460435
47	0xbf35bd69	-0.7099214
48	0xbf18b142	-0.59645474
49	0xbf276b11	-0.65397745
50	0x3ced5226	0.028969835
51	0x3d4b1e80	0.049589634
52	0x3d8dcbf9	0.0692367
53	0xbb992d80	-0.0046746135
54	0x3dce4a3e	0.10072754
55	0xbcd11db8	-0.025526866
56	0x3de97f46	0.114012286
57	0x3ce0b04e	0.027427819
58	0xbb90b674	-0.0044162814
59	0x3cbaf083	0.022819763
60	0x3cb92a7c	0.022603266
61	0x3de32be9	0.110923596
62	0x3b504a03	0.0031782396
63	0x3d2f9a36	0.042871676
64	0x3d8c6a39	0.06856198
65	0x3dccaed1	0.09994281
66	0x3d963f61	0.07336307
67	0x3c2777e1	0.010221452
68	0x3debaaeb	0.115072094
69	0x3d74acb1	0.059735004
70	0xbcd64366	-0.026155185
71	0x3d2d55fe	0.042318337
72	0x3df243b2	0.11829318
73	0x3c2fddf2	0.010734068
74	0xbb6d1d03	-0.0036180622
75	0xbd0239cf	-0.03179341
76	0x3d029ebf	0.031889673
77	0xbc87d6e4	-0.01658196
78	0x3da48c02	0.08034517
79	0x3db2f8b7	0.08738845
80	0x3db769a4	0.08955696
81	0xbc8a5855	-0.016887823
82	0xbcea889b	-0.028629592
83	0xbcd8d269	-0.026467519
84	0x3da0acfc	0.07845494
85	0x3c3d965c	0.011571493
86	0x3dcb080a	0.09913643
87	0x3b843b9a	0.0040354254
88	0xbce3335a	-0.027734447
89	0x3d8fd3f6	0.0702285
90	0x3d642869	0.0557026
91	0x3da5e9d9	0.081012435
92	0x3d4cbdcf	0.049985703
93	0x3da9145a	0.08255835
94	0x3d81d6e6	0.06339817
95	0xbd64b06f	-0.055832323
96	0x388c5a02	6.6924855e-05
97	0xbd17bf35	-0.037047584
98	0x398baa7f	0.00026639175
99	0x3d51b71c	0.051200017
100	0x3d9ad002	0.075592056
101	0xbd83c3f6	-0.06433861
102	0xbcd4bc04	-0.02596856
103	0x3d1fb5c0	0.03899169
104	0xbcfcb94c	-0.030850075
105	0xbce4b8a0	-0.027920067
106	0x3d977710	0.07395756
107	0x3d86a6c0	0.06574774
108	0xbda4a08d	-0.08038435
109	0xbc7ece28	-0.015552081
110	0x3cb91a08	0.02259542
111	0xbd353d0b	-0.04424767
112	0x3cb78790	0.022403508
113	0x3d7504f8	0.05981919
114	0xbc12d250	-0.008961275
115	0xbd33c5da	-0.043889858
116	0xbd308b14	-0.043101385
117	0x3c51b808	0.012800224
118	0xbd56dd82	-0.05245734
119	0xbd7e533c	-0.062091097
120	0x3da3712e	0.07980572
121	0x3d8cf8b0	0.06883371
122	0xbc84f904	-0.016232021
123	0x3d30f16a	0.04319898
124	0xbc63c3e8	-0.013901688
125	0x3b303185	0.0026884985
126	0xbcb4794f	-0.0220305
127	0xbd0b6c7f	-0.034039017
128	0x3dc29fbc	0.09503123
129	0x3cbcce58	0.023047611
130	0x3d290be0	0.04127109
131	0x3d2bb25b	0.04191814
132	0x3cc4d4ab	0.02402719
133	0x3dcaba17	0.09898775
134	0xbcc84909	-0.024448888
135	0x3dd2a283	0.10284903
136	0x3dda0955	0.10646311
137	0x3d95f01e	0.07321189
138	0x3dd23c80	0.10265446
139	0x3db73380	0.0894537
140	0xbb4dacaa	-0.0031383433
141	0xbd171a92	-0.036890574
142	0x3de9eb4a	0.11421831
143	0x3db67dfa	0.08910747
144	0x3d1a37b9	0.037650798
145	0x3d0ab0c4	0.033859983
146	0xbbd5d433	-0.0065255403
147	0x3d7b4d4d	0.061353017
148	0x3dc07f9f	0.09399342
149	0xbd3969b9	-0.04526684
150	0x3d2fe01e	0.042938344
151	0xbd9915c3	-0.07474854
152	0x3c852088	0.016250864
153	0xbc1bb480	-0.009503484
154	0x3da4e07c	0.080506295
155	0x3d9f9448	0.07791954
156	0xbca4de24	-0.020125456
157	0xbcd9d97e	-0.026592966
158	0xbc97ff64	-0.018554397
159	0x3d41d2bc	0.047320113
160	0xbcc501d6	-0.024048727
161	0x3d12391e	0.035699002
162	0x3d904520	0.070444345
163	0x3cca3ce4	0.024687238
164	0xbd83bd81	-0.064326294
165	0xbd12d7c0	-0.035850286
166	0xb99b8a00	-0.00029666722
167	0x3cc6f2b0	0.024285644
168	0x3d4d1a18	0.050073713
169	0x3da54530	0.08069837
170	0x3cc13668	0.023585513
171	0xbd5151b9	-0.051103327
172	0x3d90f284	0.07077506
173	0x3da234b6	0.0792021
174	0xbd3661d1	-0.04452688
175	0xbe7faa89	-0.24967398
176	0xbe264f7b	-0.16241257
177	0xbe145d01	-0.14488603
178	0xbe606af8	-0.21915805
179	0xbec5a2f2	-0.3860088
180	0xbe3628cb	-0.17788999
181	0x3c4e49a4	0.0125907995
182	0x3df36b80	0.118857384
183	0x3d7dd213	0.06196792
184	0xbda6f4d8	-0.08152169
185	0xbdd88ac9	-0.10573346
186	0x3c2d5674	0.010579694
187	0x3e43ba83	0.19114117
188	0x3da7528d	0.08170042
189	0xbbac6b85	-0.0052618408
190	0xbd1f1585	-0.038838882
191	0x3db54409	0.08850867
192	0x3e36e451	0.17860533
193	0x3e296a55	0.16544469
194	0x3d096680	0.033545017
195	0xbe7d08a2	-0.24710324
196	0xbc9e5799	-0.01932888
197	0xbcb3f110	-0.021965533
198	0xbbf4227d	-0.0074504004
199	0xbd96bdc2	-0.07360412
200	0x3db56ea9	0.088589974
201	0x3db12e7d	0.08651445
202	0x3e13daca	0.1443893
203	0x3dcdd248	0.100498736
204	0xbcb02cb5	-0.021505693
205	0x3d7fd15d	0.062455524
206	0x3df0c9bc	0.11757228
207	0x3dded3dc	0.10880253
208	0x3da4f8d5	0.080552734
209	0xbc9e8ba0	-0.019353688
210	0x3e093f76	0.13403115
211	0x3e1b7193	0.15180044
212	0x3e2ebf38	0.17065132
213	0x3d7ada71	0.06124348
214	0x3c2255a1	0.009908111
215	0xbcaf8d2c	-0.02142962
216	0x3e1f0194	0.15527946
217	0x3da2a6fb	0.07942005
218	0x3ccce980	0.025013685
219	0x3d2cea76	0.042215787
220	0x3de75ce7	0.112970166
221	0x3d517f36	0.05114671
222	0x3e040484	0.12892348
223	0x3dd1408d	0.1021739
224	0xbc28b0e4	-0.01029608
225	0xbcdc4564	-0.026888557
226	0xbc848625	-0.016177246
227	0xbd31da4b	-0.04342107
228	0x3c9d6797	0.019214435
229	0x3c77ca03	0.015123847
230	0xbd035837	-0.03206655
231	0x3d51b226	0.051195286
232	0x3ce0b922	0.027432028
233	0xbd48ab83	-0.04899169
234	0x3cc15636	0.023600679
235	0x3c8c2b4c	0.01711049
236	0x3d3b2692	0.04569108
237	0x3d687b61	0.05675829
238	0x3db7a21b	0.08966466
239	0x3dbc3f69	0.09191782
240	0xbb8b8d20	-0.004258767
241	0x3d4ad673	0.04952092
242	0x3d7a4b7a	0.061107136
243	0x3cd512e2	0.02600998
244	0x3db35020	0.08755517
245	0x3cbd95bd	0.02314269
246	0xbd5a3f84	-0.05328323
247	0x3c9cccf3	0.019140696
248	0xbd13e1f5	-0.03610416
249	0xbd928baf	-0.07155549
250	0x3c91ed94	0.017813481
251	0xbd729897	-0.059227552
252	0xbcb33c4a	-0.021879334
253	0x3d2f392a	0.042779125
254	0x3c87a1cc	0.016556643
255	0xbd3cf64a	-0.046133317

conv3.bias f4 [3]
0	0x3dcf547f	0.10123538
1	0xbbdd0d0b	-0.0067459396
2	0xbe24a651	-0.1607907

conv4.weight f4 [3, 6, 7, 7]
0	0x3cb9cae1	0.022679748
1	0xbcdd8169	-0.027039247
2	0xbcd15a27	-0.025555683
3	0x3d07d113	0.033158373
4	0x3c6cb7d5	0.014448126
5	0xbd284e1c	-0.041090116
6	0xbc6f3ac2	-0.014601411
7	0xbcc917d4	-0.024547495
8	0xbc957c02	-0.018247608
9	0xbd3e2fcc	-0.0464323
10	0xbd86e5f0	-0.06586826
11	0xbd5571c5	-0.052110452
12	0x3c8fcb17	0.017552895
13	0x3bac82d8	0.005264621
14	0x3c6203b4	0.013794828
15	0xbd04e988	-0.032449275
16	0x3cced7cb	0.025249382
17	0xbd0c2192	-0.034211703
18	0xbd0adff1	-0.033904973
19	0x3c1e3d62	0.0096581895
20	0xbd68fe7b	-0.056883316
21	0xbc4df1ed	-0.012569887
22	0xbd1d8b19	-0.038462732
23	0xbceea179	-0.02912973
24	0x3cd72778	0.026263937
25	0x3c2abec5	0.01042146
26	0xbc31e509	-0.010857829
27	0xbc2cbfa2	-0.010543736
28	0x3c9f2ffc	0.01943206
29	0x3c916b1c	0.017751269
30	0x3ca8d95a	0.020611454
31	0xbd2252a2	-0.039629586
32	0x3d151e24	0.036405697
33	0xbd275619	-0.040853593
34	0xbbaac91e	-0.0052119633
35	0x3bb69ec4	0.0055731256
36	0xbc284684	-0.0102707185
37	0x3cf40748	0.029788628
38	0x3bd918f9	0.0066252914
39	0xbcf9b5b8	-0.030482158
40	0x3cb434ae	0.021997776
41	0xbd7be2ac	-0.061495468
42	0x3ccde0f5	0.025131682
43	0x3c674de1	0.014117689
44	0xbd35ff9b	-0.044433217
45	0xbd4ddf88	-0.050262004
46	0xbc9381c8	-0.01800622
47	0xbccb21a5	-0.024796316
48	0x3d28e5d3	0.041234802
49	0xbd4d7a41	-0.05016542
50	0xbcff2aef	-0.031148402
51	0xbd32a307	-0.043612506
52	0x3d6da8fa	0.058022477
53	0x3d460d96	0.0483528
54	0xbba8dd98	-0.005153369
55	0xbc870e1c	-0.01648622
56	0x3bf7d600	0.0075633526
57	0x3b5fa440	0.0034125
58	0x3d21432c	0.0393707
59	0x3c29fcf8	0.010375254
60	0xbd593159	-0.053025577
61	0x3aa9be00	0.0012950301
62	0x3cf035c4	0.029322512
63	0xbc424748	-0.011857815
64	0xbcd89464	-0.026437946
65	0xbce746f0	-0.028232068
66	0xbb5951a0	-0.0033160225
67	0x3d3e3cfa	0.04644487
68	0x3d5e6a20	0.054300427
69	0x3d27cc8e	0.040966563
70	0xbd349f24	-0.04409708
71	0xbd585a33	-0.052820396
72	0x3d3d4696	0.046209894
73	0x3d4a21a2	0.04934848
74	0x3c6b1fc0	0.0143508315
75	0xbd567527	-0.05235782
76	0x3d02abd0	0.031902134
77	0x3cebfe80	0.028807878
78	0x3d284c2a	0.04108826
79	0xbd44be70	-0.048033178
80	0x3ce92ab8	0.028462753
81	0x3d2bbdf8	0.041929215
82	0xbcaad7cc	-0.020854853
83	0xbd3cb06f	-0.046066698
84	0x3d2fe864	0.042946234
85	0xbbcf5ba8	-0.006328065
86	0x3d641294	0.05568178
87	0xbc925f86	-0.017867815
88	0x3d266a4e	0.040628724
89	0x3ca09ebc	0.01960694
90	0x3d047246	0.032335542
91	0x3b809090	0.003923483
92	0xbd3c6b8e	-0.04600101
93	0x3bfe0450	0.007751979
94	0x3a571a80	0.0008205548
95	0x3b3fe480	0.0029280484
96	0xbce45e22	-0.027876917
97	0x3d2fc5ac	0.042913124
98	0x3cbb84c7	0.022890462
99	0xbd5c6b9d	-0.053813566
100	0xb7b1a6b8	-2.1177679e-05
101	0xbc03df24	-0.008048806
102	0xbd3e4730	-0.04645461
103	0x3b4d0127	0.0031281204
104	0x3ce3f4c6	0.027826678
105	0x3cc7d955	0.024395624
106	0xbc912a29	-0.017720299
107	0xbd44e521	-0.048070077
108	0xbcc91055	-0.02454392
109	0x3bba2ea4	0.0056818295
110	0xbcd6ba97	-0.02621202
111	0x3cba6da5	0.02275736
112	0x3b75bdb3	0.0037497103
113	0xbd12ad9f	-0.03581011
114	0xbc99cc70	-0.018774241
115	0xbd54a854	-0.051918343
116	0xbd4e9cfa	-0.050442673
117	0xbd903856	-0.07041995
118	0x3d32dc11	0.043666903
119	0x3c99e357	0.018785162
120	0x3d1d5fa5	0.03842129
121	0xbcb5a3d5	-0.022172848
122	0x3cc0d8e6	0.023540925
123	0x3bdd48ed	0.006753078
124	0x3d1cf822	0.038322575
125	0x3d11c631	0.0355894
126	0x3c8f84a6	0.017519306
127	0xbd1f979a	-0.038962938
128	0xbbf99ab4	-0.007617319
129	0x3c5d89da	0.013521636
130	0xbcdcd800	-0.026958466
131	0xbd0a3479	-0.033741448
132	0xbb21f0dc	-0.0024710214
133	0x3bb09e39	0.0053899554
134	0xbc5603f6	-0.013062468
135	0xba187009	-0.00058150344
136	0x3cf8f383	0.030389553
137	0xbb941895	-0.004519532
138	0xbc281f9d	-0.010261443
139	0xbcd17504	-0.025568493
140	0x3cdc2dfb	0.026877394
141	0xbd33f550	-0.04393512
142	0x3d32e975	0.043679673
143	0xbd1f7644	-0.038931146
144	0x3c5c7f72	0.01345812
145	0x3c9e5994	0.019329824
146	0x3c7ccc3b	0.015429552
147	0xbd4a152a	-0.04933659
148	0xbc618756	-0.013765177
149	0xbd0e115f	-0.034684535
150	0xbcab03dd	-0.020875866
151	0xbd7c64e2	-0.061619647
152	0xbd115240	-0.03547883
153	0xbd05aa45	-0.032633085
154	0xbcc9a2b2	-0.024613712
155	0x3d29774e	0.041373543
156	0xbd84a2af	-0.06476342
157	0x3d18b4bb	0.037281733
158	0xbcff6d4f	-0.031180052
159	0xbceabb90	-0.02865389
160	0xbd04515e	-0.03230416
161	0x3cc6a03f	0.024246333
162	0xbcb05ee9	-0.021529632
163	0xbd847fa0	-0.06469655
164	0xbcfabd45	-0.030607829
165	0x3c65bea4	0.014022503
166	0x3d26fd6c	0.040769026
167	0xbd2f1f3a	-0.04275439
168	0xbd486746	-0.048926614
169	0xbc3e58ae	-0.011617823
170	0xbd78c588	-0.060735255
171	0x3cc5031b	0.024049332
172	0xbceb7999	-0.028744506
173	0x3cd5f98f	0.026119975
174	0xbc9b6e6b	-0.01897355
175	0x3c895299	0.016763018
176	0x3ce9c9df	0.028538642
177	0xbd75cf8b	-0.06001238
178	0xbd0d2bf4	-0.034465745
179	0x3cdf1472	0.027231429
180	0xbd64aa41	-0.05582643
181	0xbd13bd94	-0.036069468
182	0xbc93b6f1	-0.01803157
183	0xbb274855	-0.002552529
184	0x3ca885a1	0.020571532
185	0x3d303667	0.043020632
186	0x3d1c98c0	0.03823161
187	0x3c6cae44	0.014445845
188	0xbd8abbc9	-0.067740984
189	0xbd299e89	-0.041410957
190	0xbb5ed2b5	-0.0034000103
191	0xbc593bd3	-0.013258892
192	0x3ce2fbab	0.027707895
193	0xbc63212e	-0.013862891
194	0xbaca094e	-0.001541415
195	0xbbf97ef6	-0.007614012
196	0x3d9dcc6f	0.07705008
197	0x3d633ee7	0.05547991
198	0x3c1161e9	0.008873441
199	0x3bb7fb81	0.0056146984
200	0x3cba1051	0.022712858
201	0xbd99e863	-0.075150274
202	0xbcae6a1f	-0.021290837
203	0x3d8d3423	0.0689471
204	0x3cbf7e0f	0.02337554
205	0x3bdc656d	0.006725958
206	0x3c89a5a9	0.016802626
207	0xbd51689e	-0.05112516
208	0xbd69053c	-0.056889758
209	0x3aa36db7	0.0012468611
210	0x3d06a7d0	0.032874882
211	0x3ca43db1	0.020048948
212	0x3ca7a10a	0.020462532
213	0xbd498bb7	-0.049205508
214	0xbd3a32e0	-0.045458674
215	0xbd28dc74	-0.041225865
216	0xbd35ad71	-0.04435486
217	0xbd068be9	-0.032848272
218	0xbd97f82a	-0.074203804
219	0xbd5e33d4	-0.054248646
220	0x3c9a86ee	0.018863168
221	0xbda09178	-0.07840246
222	0xbc92c52f	-0.01791629
223	0xbdad7df9	-0.08471293
224	0x3cdf3bf3	0.027250266
225	0xbd253152	-0.04033024
226	0xbd2b391a	-0.041802503
227	0x3c8a7378	0.016900763
228	0xbd9d74ba	-0.076882794
229	0xbd0a23a6	-0.033725403
230	0x3bc75681	0.00608331
231	0xbd8030ea	-0.062593296
232	0xbda4f542	-0.08054592
233	0xbda54ac6	-0.080709025
234	0xbda51d30	-0.08062208
235	0xbd844ac2	-0.064595714
236	0xbd548d22	-0.051892407
237	0x3c221607	0.009892947
238	0x3c566ed0	0.013087943
239	0xbbc8d9f2	-0.0061294967
240	0x3c16e840	0.009210646
241	0xbc59881f	-0.013277083
242	0x3c9243f0	0.01785466
243	0xbc28505f	-0.010273068
244	0xbcccde58	-0.025008366
245	0x3e318dcd	0.17339249
246	0x3d27c568	0.040959746
247	0x3cc6e8ef	0.024280993
248	0x3d5c9208	0.053850204
249	0xbbff812b	-0.0077973804
250	0xbd40c665	-0.047064204
251	0xbca936cd	-0.020656014
252	0x3ce45a85	0.027875194
253	0x3cad2546	0.021135937
254	0xbd53f3d9	-0.051746223
255	0xbd66145d	-0.056171764

conv4.bias f4 [3]
0	0xbc5d2877	-0.013498417
1	0x3dc1c71d	0.09461806
2	0x3c06e2a7	0.008232749

conv5.weight f4 [3, 12, 3, 3]
0	0xbda85ac4	-0.08220437
1	0xbc15ef20	-0.00915125
2	0xbd7fba37	-0.062433448
3	0xbc845f00	-0.01615858
4	0x3d9e3519	0.07724971
5	0x3d5bcb56	0.053660713
6	0xbca68e84	-0.020331629
7	0xbd9bfa5d	-0.076161124
8	0xbd7435e5	-0.05962171
9	0x3e1f2cb9	0.15544404
10	0x3e6727a3	0.22573714
11	0x3e26a62a	0.16274324
12	0x3e2a8bac	0.16654843
13	0x3f3768a1	0.71644026
14	0x3db5137e	0.088416085
15	0xbd0af453	-0.033924412
16	0x3e4a5d75	0.19762214
17	0x3e69e089	0.2283956
18	0x3dfdc14e	0.123903856
19	0x3deac1d6	0.114627525
20	0x39bcb6a9	0.00035994247
21	0x3d72620e	0.059175543
22	0x3e2ed012	0.1707156
23	0x3e23c42b	0.15992801
24	0xbc87260b	-0.016497632
25	0x3e1470fa	0.14496222
26	0x3d58aa89	0.05289701
27	0x3e036568	0.12831652
28	0xbcbdb837	-0.02315913
29	0x3db5faec	0.0888575
30	0x3db8fe13	0.09032836
31	0x3e1e7d32	0.15477446
32	0x3dd1798f	0.102282636
33	0x3dfdcab5	0.12392179
34	0xbd281c1b	-0.04104243
35	0xbd3973a2	-0.04527629
36	0x39276c00	0.00015966594
37	0x3d97a155	0.074038185
38	0x3d8a9c39	0.06768078
39	0x3cb08058	0.021545574
40	0x3c7a9ed0	0.015296653
41	0xbcf77e6c	-0.03021165
42	0x3db3ed43	0.087854885
43	0xbd93313f	-0.07187127
44	0xbbec3ea0	-0.007209614
45	0x3e0a23d2	0.13490227
46	0x3e04f744	0.1298495
47	0x3c0a6f19	0.008449339
48	0x3e1e6e24	0.15471703
49	0x3d94cf5d	0.07266114
50	0x3e05917f	0.13043784
51	0xbcd0ca75	-0.025487164
52	0x3ddfd1c1	0.10928679
53	0x3ccd6df9	0.025076853
54	0xbc88c112	-0.016693626
55	0x3d779a9e	0.06045019
56	0x3c57b33d	0.013165292
57	0x3df82cb4	0.121179014
58	0x3dc1df47	0.09466415
59	0x3dfe91c5	0.12430147
60	0x3e059452	0.13044861
61	0xbb27bf7b	-0.002559631
62	0x3dd82248	0.10553414
63	0x3c1848ac	0.00929467
64	0x3e0fb3e4	0.14033467
65	0x3dde80d1	0.108644135
66	0xbc173ef5	-0.009231319
67	0x3ce6c06e	0.02816793
68	0xbd2c5e5a	-0.04208217
69	0x3dea8d41	0.11452723
70	0x3d781610	0.060567915
71	0x3d91b0a3	0.07113769
72	0x3e0a9fbe	0.135375
73	0x3dfa568b	0.12223538
74	0x3d394b4d	0.045237828
75	0x3d918361	0.07105137
76	0x3e3242cb	0.17408292
77	0x3dc10fb9	0.09426827
78	0x3e329e73	0.17443256
79	0x3e1d860a	0.15383163
80	0x3c9d788e	0.019222524
81	0xbdabdc28	-0.08391601
82	0xbd9a961b	-0.075481616
83	0xbd106da1	-0.0352608
84	0x3c94329b	0.018090537
85	0x3d414130	0.04718131
86	0x3c1e4014	0.009658832
87	0xbcd9aa4f	-0.026570467
88	0xbd5dedc2	-0.05418182
89	0x3dbfac46	0.093590304
90	0xbb4e3126	-0.00314624
91	0xbcab9688	-0.020945802
92	0x3de4ee5e	0.111782774
93	0xbd0f9f62	-0.03506411
94	0x3cd97024	0.02654273
95	0x3d6324d5	0.055455048
96	0x3dae2cd1	0.08504642
97	0xbd21189a	-0.039330103
98	0x3d21d38e	0.039508395
99	0x3e2bec6e	0.1678941
100	0x3cebafef	0.028770415
101	0x3cf9f510	0.030512363
102	0x3e1d6bc4	0.1537314
103	0x3d6a04ae	0.05713337
104	0x3db84e95	0.08999363
105	0x3e5aa62f	0.21352457
106	0x3e01007f	0.12597845
107	0x3db1edf6	0.086879656
108	0xbcf06730	-0.029346079
109	0x3d2bcd1e	0.041943662
110	0xbd9822eb	-0.07428535
111	0xbdb802f2	-0.08984937
112	0x3d20ee26	0.039289616
113	0x3d8f70cd	0.07003937
114	0xbd9d1738	-0.07670444
115	0xbd8a3bcc	-0.067496866
116	0x3bc2eba0	0.005948499
117	0xbe5c1560	-0.21492529
118	0x3e0afa64	0.13572079
119	0xbded585c	-0.11589119
120	0x3e1cc7b1	0.15310551
121	0x3fa1c519	1.2638274
122	0x3e2ff7bf	0.17184351
123	0xbea9e813	-0.3318487
124	0x3e71b62d	0.23604651
125	0xbd647c05	-0.055782337
126	0x3d1e7bfd	0.038692463
127	0x3e2bc8ef	0.16775869
128	0x3e199698	0.14998853
129	0x3e23b99a	0.1598877
130	0x3eacd50c	0.33756292
131	0x3db00e83	0.08596518
132	0x3c3e59cd	0.01161809
133	0x3d9afef9	0.075681634
134	0x3e29710c	0.1654703
135	0x3d5c6838	0.05381033
136	0x3c3d0aec	0.0115382485
137	0x3df57052	0.11984314
138	0x3e0b581d	0.13607831
139	0x3dfbe216	0.12298982
140	0x3df964cf	0.12177431
141	0xbd68aadf	-0.05680358
142	0x3dc19c35	0.09453622
143	0x3db9d28d	0.090733625
144	0x3d08fd96	0.033444963
145	0x3d2223da	0.039584972
146	0xbd7fc79e	-0.06244623
147	0x3d0117d6	0.031516872
148	0xbbfa2ba0	-0.007634595
149	0xbd9f2526	-0.077707574
150	0x3d8af19f	0.06784367
151	0x3dbd02b3	0.092290305
152	0x3dbfb9b1	0.0936159
153	0xbc8321e0	-0.016007364
154	0xbb18dd3f	-0.0023325232
155	0x3df7ba47	0.120960765
156	0x3d73d9f7	0.05953404
157	0x3df798de	0.12089704
158	0x3c365944	0.011129681
159	0xbc2ac8da	-0.010423863
160	0x3db9e21e	0.090763316
161	0x3db0fa46	0.08641486
162	0x3b834ad2	0.004006722
163	0x3d941d3f	0.07232141
164	0x3de1c1f8	0.11023325
165	0xbcff4887	-0.031162513
166	0x3d979370	0.07401168
167	0x3d8722ff	0.06598472
168	0x3cde0b25	0.027104924
169	0x3d736713	0.05942447
170	0x3d2adef4	0.04171653
171	0x3de504cf	0.11182558
172	0x3c231775	0.009954323
173	0x3df169ec	0.11787781
174	0x3d89867d	0.06715105
175	0x3e1f9416	0.15583834
176	0x3da489a5	0.08034066
177	0x3dcb3857	0.09922855
178	0x3c863a1e	0.016385134
179	0x3ddcb5fd	0.10776899
180	0x3e51447e	0.20436284
181	0x3ebe0dca	0.37119895
182	0x3ec6b694	0.3881117
183	0x3ea10a01	0.31452945
184	0x3e78d62d	0.24300452
185	0x3ebba24b	0.36647257
186	0x3eaedf0e	0.34154552
187	0x3e9c10c3	0.30481538
188	0x3e9f5e1e	0.31126493
189	0x3e46b6c5	0.19405659
190	0x3d825c53	0.06365266
191	0x3d749d98	0.059720606
192	0x3e01df98	0.1268295
193	0x3aca5e12	0.0015439412
194	0x3c97e82f	0.018543331
195	0x3e34d8e0	0.17660856
196	0x3dc08e5d	0.09402154
197	0xbd539e07	-0.05166438
198	0x3d76098f	0.06006771
199	0x3da5a853	0.08088746
200	0x3d837094	0.06417957
201	0x3cfd31bf	0.03090751
202	0x3bb130c1	0.0054074232
203	0xbc6e22eb	-0.014534692
204	0x3d7a1b50	0.061061203
205	0x3d9e9eba	0.077451184
206	0xbc37f8f9	-0.011228793
207	0x3ed22e11	0.4105077
208	0x3ea148a4	0.31500733
209	0x3e9c4d50	0.30527735
210	0x3eaf6595	0.34257188
211	0x3e8cebf8	0.2752378
212	0x3e8093a9	0.25112656
213	0x3ed5d547	0.4176428
214	0x3e9cb1d7	0.3060443
215	0x3e69b01c	0.22821087
216	0x3c86ff44	0.016479142
217	0xbda6606f	-0.08123862
218	0x3d50993a	0.05092738
219	0xbd338052	-0.043823548
220	0x3bac9d70	0.0052677915
221	0xbca12e60	-0.019675434
222	0x3dabbbd7	0.08385437
223	0x3d8fc5ef	0.07020175
224	0x3d347152	0.044053383
225	0x3ed7225c	0.42018402
226	0x3f4c3a1e	0.7977618
227	0x3ea00575	0.31254163
228	0x3f4864c9	0.78278786
229	0x3fe4683c	1.784431
230	0x3f340bf0	0.70330715
231	0x3eac1290	0.33607912
232	0x3f3774b0	0.71662426
233	0x3eafa817	0.3430793
234	0x3da02eed	0.078214504
235	0x3e9a6753	0.30156955
236	0x3e32ed1f	0.17473267
237	0x3e24ac18	0.16081274
238	0x3e93862e	0.28813308
239	0x3e212306	0.15736017
240	0x3e4060ee	0.18786976
241	0x3e8cc06a	0.2749055
242	0x3e56ff7f	0.20995902
243	0x3d18ad31	0.037274543
244	0x3e289026	0.16461238
245	0x3d573032	0.052536197
246	0x3e062129	0.13098587
247	0xbb168184	-0.002296538
248	0x3e04a7c9	0.1295463
249	0x3e0aceff	0.13555525
250	0xbcf58c36	-0.029974084
251	0x3c3de687	0.0115906065
252	0x3da6f273	0.08151712
253	0xbda3960b	-0.07987603
254	0xbc938ad4	-0.018010534
255	0xbd64fb56	-0.055903755

conv5.bias f4 [3]
0	0x3dcf2009	0.10113532
1	0x3d057b71	0.032588426
2	0x3cdf967e	0.02729344

exp_avg f4 [3, 3, 1, 1]
0	0x00000000	0.0
1	0x00000000	0.0
2	0x00000000	0.0
3	0xbbb300c7	-0.005462739
4	0xbbc4fea1	-0.0060117994
5	0xbafbdca2	-0.0019215534
6	0xbb89e256	-0.0042078895
7	0xbb9ce275	-0.004787738
8	0xbc017ae2	-0.007902833

exp_avg_sq f4 [3, 3, 1, 1]
0	0x00000000	0.0
1	0x00000000	0.0
2	0x00000000	0.0
3	0x3b9436ce	0.004523135
4	0x3bafa22c	0.0053599086
5	0x3bb67b33	0.0055688857
6	0x3c9b9a1f	0.01899439
7	0x3cc203f6	0.02368353
8	0x3cc30d2d	0.023809994

exp_avg f4 [3]
0	0x00000000	0.0
1	0x3b01b840	0.001979366
2	0xbbae19e4	-0.005313145

exp_avg_sq f4 [3]
0	0x00000000	0.0
1	0x3bdf8ddc	0.006822331
2	0x3d1affc1	0.037841562

exp_avg f4 [3, 3, 3, 3]
0	0x00000000	0.0
1	0x00000000	0.0
2	0x00000000	0.0
3	0x00000000	0.0
4	0x00000000	0.0
5	0x00000000	0.0
6	0x00000000	0.0
7	0x00000000	0.0
8	0x00000000	0.0
9	0xb84e9683	-4.9254402e-05
10	0xb769d732	-1.3937986e-05
11	0x37288981	1.0045595e-05
12	0xb85755d6	-5.1339935e-05
13	0xb780ffac	-1.5377846e-05
14	0x36ee0336	7.0933265e-06
15	0xb88d9561	-6.751228e-05
16	0xb8117daf	-3.4687746e-05
17	0xb7629d7d	-1.3507318e-05
18	0xba2250a9	-0.0006191829
19	0xba0bf676	-0.0005339155
20	0xb9ed1f0a	-0.00045227289
21	0xba26dbbc	-0.00063651404
22	0xba0eeee3	-0.0005452467
23	0xb9f5d09e	-0.00046885473
24	0xba1b4f71	-0.00059246185
25	0xba057d4b	-0.00050922175
26	0xb9e59f52	-0.00043796987
27	0x00000000	0.0
28	0x00000000	0.0
29	0x00000000	0.0
30	0x00000000	0.0
31	0x00000000	0.0
32	0x00000000	0.0
33	0x00000000	0.0
34	0x00000000	0.0
35	0x00000000	0.0
36	0x00000000	0.0
37	0x00000000	0.0
38	0x00000000	0.0
39	0x00000000	0.0
40	0x00000000	0.0
41	0x00000000	0.0
42	0x00000000	0.0
43	0x00000000	0.0
44	0x00000000	0.0
45	0x00000000	0.0
46	0x00000000	0.0
47	0x00000000	0.0
48	0x00000000	0.0
49	0x00000000	0.0
50	0x00000000	0.0
51	0x00000000	0.0
52	0x00000000	0.0
53	0x00000000	0.0
54	0x00000000	0.0
55	0x00000000	0.0
56	0x00000000	0.0
57	0x00000000	0.0
58	0x00000000	0.0
59	0x00000000	0.0
60	0x00000000	0.0
61	0x00000000	0.0
62	0x00000000	0.0
63	0x37c14755	2.304061e-05
64	0xb7ce3fbf	-2.4586798e-05
65	0xb811a75b	-3.4726556e-05
66	0x3790b1c9	1.7248925e-05
67	0xb80e5c37	-3.394132e-05
68	0xb846ad4f	-4.7368285e-05
69	0x3859b913	5.1909195e-05
70	0xb5922087	-1.0887314e-06
71	0xb79744cf	-1.8032644e-05
72	0x3a9a1b6f	0.0011757443
73	0x3a8e7d01	0.0010870994
74	0x3a9aa6a8	0.0011798935
75	0x3a7d8fd2	0.0009672615
76	0x3a646c9a	0.00087136927
77	0x3a7d82f9	0.00096707005
78	0x3a84b028	0.00101233
79	0x3a721160	0.00092341565
80	0x3a83b4d2	0.0010048395

exp_avg_sq f4 [3, 3, 3, 3]
0	0x00000000	0.0
1	0x00000000	0.0
2	0x00000000	0.0
3	0x00000000	0.0
4	0x00000000	0.0
5	0x00000000	0.0
6	0x00000000	0.0
7	0x00000000	0.0
8	0x00000000	0.0
9	0x348803b6	2.5334674e-07
10	0x348842b0	2.5380496e-07
11	0x3488e892	2.550119e-07
12	0x34877333	2.5229528e-07
13	0x3487ab72	2.5270452e-07
14	0x348843dd	2.538135e-07
15	0x34876fb6	2.522699e-07
16	0x34879eb9	2.5261195e-07
17	0x34880e53	2.5342396e-07
18	0x39905810	0.00027531432
19	0x3990ad6f	0.00027595038
20	0x39909b5f	0.0002758158
21	0x3990b1b7	0.00027598228
22	0x39910d41	0.0002766643
23	0x3990f56c	0.00027648674
24	0x399081ae	0.0002756244
25	0x3990df7f	0.00027632338
26	0x3990c33f	0.0002761129
27	0x00000000	0.0
28	0x00000000	0.0
29	0x00000000	0.0
30	0x00000000	0.0
31	0x00000000	0.0
32	0x00000000	0.0
33	0x00000000	0.0
34	0x00000000	0.0
35	0x00000000	0.0
36	0x00000000	0.0
37	0x00000000	0.0
38	0x00000000	0.0
39	0x00000000	0.0
40	0x00000000	0.0
41	0x00000000	0.0
42	0x00000000	0.0
43	0x00000000	0.0
44	0x00000000	0.0
45	0x00000000	0.0
46	0x00000000	0.0
47	0x00000000	0.0
48	0x00000000	0.0
49	0x00000000	0.0
50	0x00000000	0.0
51	0x00000000	0.0
52	0x00000000	0.0
53	0x00000000	0.0
54	0x00000000	0.0
55	0x00000000	0.0
56	0x00000000	0.0
57	0x00000000	0.0
58	0x00000000	0.0
59	0x00000000	0.0
60	0x00000000	0.0
61	0x00000000	0.0
62	0x00000000	0.0
63	0x361e65f6	2.3603184e-06
64	0x361f2771	2.3715804e-06
65	0x361f0788	2.369723e-06
66	0x361eaebb	2.3645541e-06
67	0x361f6f16	2.3757507e-06
68	0x361f4c42	2.3737234e-06
69	0x361e04d3	2.3546643e-06
70	0x361ea434	2.3639413e-06
71	0x361e7f96	2.36181e-06
72	0x3abf92ba	0.0014615871
73	0x3abf9636	0.001461691
74	0x3abee7f5	0.0014564978
75	0x3ac05297	0.0014673051
76	0x3ac055f7	0.0014674057
77	0x3abf9ed6	0.001461948
78	0x3ac0443a	0.0014668771
79	0x3ac04705	0.0014669603
80	0x3abf8ff0	0.001461504

exp_avg f4 [3]
0	0xbaee91b7	-0.0018201385
1	0x00000000	0.0
2	0xb8d7daba	-0.0001029274

exp_avg_sq f4 [3]
0	0x3ba114e7	0.004915822
1	0x00000000	0.0
2	0x3c990e80	0.018683672

exp_avg f4 [3, 6, 5, 5]
0	0x00000000	0.0
1	0x00000000	0.0
2	0x00000000	0.0
3	0x00000000	0.0
4	0x00000000	0.0
5	0x00000000	0.0
6	0x00000000	0.0
7	0x00000000	0.0
8	0x00000000	0.0
9	0x00000000	0.0
10	0x00000000	0.0
11	0x00000000	0.0
12	0x00000000	0.0
13	0x00000000	0.0
14	0x00000000	0.0
15	0x00000000	0.0
16	0x00000000	0.0
17	0x00000000	0.0
18	0x00000000	0.0
19	0x00000000	0.0
20	0x00000000	0.0
21	0x00000000	0.0
22	0x00000000	0.0
23	0x00000000	0.0
24	0x00000000	0.0
25	0x378b0b87	1.6575459e-05
26	0x3765682d	1.3673719e-05
27	0x3753cc0e	1.262409e-05
28	0x37455020	1.1760771e-05
29	0x374a8c1a	1.2072758e-05
30	0x37922849	1.7423316e-05
31	0x37770515	1.47235305e-05
32	0x377bf7a7	1.5018427e-05
33	0x3753d350	1.262578e-05
34	0x3753be93	1.2620952e-05
35	0x37a80428	2.0029096e-05
36	0x379318c6	1.7535302e-05
37	0x378ac151	1.6540902e-05
38	0x3760581d	1.3371956e-05
39	0x374b887a	1.2131519e-05
40	0x37b1df5d	2.1204056e-05
41	0x3793192a	1.7535483e-05
42	0x3779e87c	1.4895686e-05
43	0x375200ed	1.2517191e-05
44	0x373ce488	1.1258882e-05
45	0x37bb54d4	2.2331638e-05
46	0x379ea66c	1.8912564e-05
47	0x37864c70	1.6009639e-05
48	0x3760792a	1.3379651e-05
49	0x3748604b	1.1943349e-05
50	0x38e21141	0.000107797336
51	0x38bb4ac7	8.930783e-05
52	0x38a9e097	8.100381e-05
53	0x38b15b76	8.4570536e-05
54	0x38cd412c	9.787301e-05
55	0x38d75945	0.00010268627
56	0x389e60ab	7.552033e-05
57	0x38a10c8b	7.6794146e-05
58	0x3891009f	6.9142545e-05
59	0x38be9a2f	9.088625e-05
60	0x38cab53b	9.6658674e-05
61	0x388aaf08	6.612955e-05
62	0x386dd008	5.6698947e-05
63	0x3865a00e	5.4746917e-05
64	0x38960d05	7.1549824e-05
65	0x38f5db63	0.00011723374
66	0x38b4439e	8.5956635e-05
67	0x388b51e2	6.643288e-05
68	0x38a45ea9	7.837761e-05
69	0x38ba890e	8.8946996e-05
70	0x3909b772	0.00013133677
71	0x38ee15f5	0.00011352814
72	0x38c3bafd	9.333154e-05
73	0x38cc8723	9.752649e-05
74	0x38cd72e1	9.7965596e-05
75	0x3815a752	3.5680197e-05
76	0x37f5c444	2.929767e-05
77	0x37ab6629	2.043236e-05
78	0x3817dd6a	3.6207413e-05
79	0x3839888c	4.4234606e-05
80	0x37b9cd64	2.2149361e-05
81	0x37656388	1.3672638e-05
82	0x35e5a78a	1.711059e-06
83	0x378ea084	1.7002465e-05
84	0x37e1487d	2.6855845e-05
85	0x370a242e	8.233865e-06
86	0xb56ff8ec	-8.9396667e-07
87	0xb750bee2	-1.24422095e-05
88	0x3675a9eb	3.660675e-06
89	0x3796ede7	1.7992175e-05
90	0x37b3d165	2.143597e-05
91	0x37818eba	1.544446e-05
92	0x370a0024	8.225474e-06
93	0x37be58f4	2.2691187e-05
94	0x380bb80d	3.3311593e-05
95	0x379f054f	1.8956749e-05
96	0x37498aab	1.201282e-05
97	0x36e337b6	6.771613e-06
98	0x37bdecda	2.2640848e-05
99	0x380b7284	3.3246833e-05
100	0x00000000	0.0
101	0x00000000	0.0
102	0x00000000	0.0
103	0x00000000	0.0
104	0x00000000	0.0
105	0x00000000	0.0
106	0x00000000	0.0
107	0x00000000	0.0
108	0x00000000	0.0
109	0x00000000	0.0
110	0x00000000	0.0
111	0x00000000	0.0
112	0x00000000	0.0
113	0x00000000	0.0
114	0x00000000	0.0
115	0x00000000	0.0
116	0x00000000	0.0
117	0x00000000	0.0
118	0x00000000	0.0
119	0x00000000	0.0
120	0x00000000	0.0
121	0x00000000	0.0
122	0x00000000	0.0
123	0x00000000	0.0
124	0x00000000	0.0
125	0x377b9cea	1.49973e-05
126	0xb72c42c9	-1.02675485e-05
127	0xb7e45b58	-2.7222253e-05
128	0x35e45ace	1.7013751e-06
129	0x382104e2	3.838994e-05
130	0xb78c8a2a	-1.6753638e-05
131	0xb825818a	-3.945971e-05
132	0xb8796467	-5.9459733e-05
133	0xb7eac9a0	-2.7988863e-05
134	0x37255423	9.854356e-06
135	0xb86849b5	-5.5381755e-05
136	0xb8983589	-7.2578965e-05
137	0xb8cbe4ee	-9.722436e-05
138	0xb87496a5	-5.8314432e-05
139	0xb7b43995	-2.1484486e-05
140	0xb8070f42	-3.2200718e-05
141	0xb8405eba	-4.5864588e-05
142	0xb88781ee	-6.461503e-05
143	0xb7e8adc8	-2.7737478e-05
144	0x36f95547	7.430706e-06
145	0xb4175ff8	-1.4097884e-07
146	0xb78db9ca	-1.6895025e-05
147	0xb80a9153	-3.3037108e-05
148	0x34f52136	4.565897e-07
149	0x38298345	4.0414994e-05
150	0x00000000	0.0
151	0x00000000	0.0
152	0x00000000	0.0
153	0x00000000	0.0
154	0x00000000	0.0
155	0x00000000	0.0
156	0x00000000	0.0
157	0x00000000	0.0
158	0x00000000	0.0
159	0x00000000	0.0
160	0x00000000	0.0
161	0x00000000	0.0
162	0x00000000	0.0
163	0x00000000	0.0
164	0x00000000	0.0
165	0x00000000	0.0
166	0x00000000	0.0
167	0x00000000	0.0
168	0x00000000	0.0
169	0x00000000	0.0
170	0x00000000	0.0
171	0x00000000	0.0
172	0x00000000	0.0
173	0x00000000	0.0
174	0x00000000	0.0
175	0xb74942f3	-1.1996121e-05
176	0xb7490f27	-1.19840615e-05
177	0xb73787f7	-1.0939307e-05
178	0xb721ffd1	-9.65591e-06
179	0xb7093e73	-8.180376e-06
180	0xb7662eda	-1.3719977e-05
181	0xb769862d	-1.39191225e-05
182	0xb75790f2	-1.2848746e-05
183	0xb7448de5	-1.1715548e-05
184	0xb72831a9	-1.0025143e-05
185	0xb762fed8	-1.3529985e-05
186	0xb759039d	-1.2935049e-05
187	0xb75d6330	-1.319572e-05
188	0xb7497bbb	-1.2009342e-05
189	0xb7486bdd	-1.1946043e-05
190	0xb75cf322	-1.3169631e-05
191	0xb772333c	-1.4436253e-05
192	0xb76ee2e9	-1.4238737e-05
193	0xb772cadd	-1.4471557e-05
194	0xb76e898f	-1.4217933e-05
195	0xb7663f30	-1.372378e-05
196	0xb7795a21	-1.4862541e-05
197	0xb780c2f0	-1.5349564e-05
198	0xb78874c0	-1.626683e-05
199	0xb78712e0	-1.6102043e-05
200	0xb8d7b6c4	-0.00010286042
201	0xb8f2130a	-0.000115430055
202	0xb90cad5b	-0.0001341602
203	0xb8e80553	-0.00011063614
204	0xb8d1c2a2	-0.0001000215
205	0xb8f39dd4	-0.00011616541
206	0xb912b8ab	-0.00013992439
207	0xb92e96d2	-0.00016650118
208	0xb912f1d5	-0.00014013734
209	0xb8fbc0b5	-0.00012004507
210	0xb8f48de8	-0.00011661259
211	0xb90fb8d2	-0.00013706394
212	0xb9387dd6	-0.00017594485
213	0xb912eb8d	-0.00014011395
214	0xb908903a	-0.000130237
215	0xb8d5002f	-0.00010156666
216	0xb90bc0c9	-0.00013327891
217	0xb9252705	-0.00015750162
218	0xb9087763	-0.00013014446
219	0xb8fee92c	-0.000121550955
220	0xb8b87f93	-8.797566e-05
221	0xb8dd8ad2	-0.000105639585
222	0xb9078684	-0.00012924714
223	0xb8f03394	-0.00011453699
224	0xb8f0ca50	-0.000114817754
225	0xb83363ff	-4.2770054e-05
226	0xb8701a5e	-5.7245015e-05
227	0xb8a4b098	-7.8530225e-05
228	0xb881c356	-6.1875835e-05
229	0xb8603680	-5.345652e-05
230	0xb86ec122	-5.692349e-05
231	0xb894d789	-7.0973365e-05
232	0xb8c466fc	-9.3651906e-05
233	0xb8a5abf5	-7.8998426e-05
234	0xb8946588	-7.0761016e-05
235	0xb884d3ec	-6.333724e-05
236	0xb8a7e0b4	-8.005035e-05
237	0xb8d26ede	-0.00010034231
238	0xb8abe483	-8.196479e-05
239	0xb89c1d42	-7.444109e-05
240	0xb83938f5	-4.4160483e-05
241	0xb8764329	-5.871352e-05
242	0xb89ea988	-7.565605e-05
243	0xb8755147	-5.8488247e-05
244	0xb86dc8b8	-5.6692137e-05
245	0xb84faa52	-4.951127e-05
246	0xb885d3c6	-6.38138e-05
247	0xb8a762d7	-7.981591e-05
248	0xb8855922	-6.3585365e-05
249	0xb8741297	-5.8191446e-05
250	0x00000000	0.0
251	0x00000000	0.0
252	0x00000000	0.0
253	0x00000000	0.0
254	0x00000000	0.0
255	0x00000000	0.0

exp_avg_sq f4 [3, 6, 5, 5]
0	0x00000000	0.0
1	0x00000000	0.0
2	0x00000000	0.0
3	0x00000000	0.0
4	0x00000000	0.0
5	0x00000000	0.0
6	0x00000000	0.0
7	0x00000000	0.0
8	0x00000000	0.0
9	0x00000000	0.0
10	0x00000000	0.0
11	0x00000000	0.0
12	0x00000000	0.0
13	0x00000000	0.0
14	0x00000000	0.0
15	0x00000000	0.0
16	0x00000000	0.0
17	0x00000000	0.0
18	0x00000000	0.0
19	0x00000000	0.0
20	0x00000000	0.0
21	0x00000000	0.0
22	0x00000000	0.0
23	0x00000000	0.0
24	0x00000000	0.0
25	0x3130c2c5	2.5722084e-09
26	0x3132a6b6	2.5997173e-09
27	0x3133ff4a	2.6193043e-09
28	0x3133c8ce	2.6162073e-09
29	0x313276ac	2.5969866e-09
30	0x31339aa4	2.6135831e-09
31	0x3136c367	2.659556e-09
32	0x3138eb51	2.6909286e-09
33	0x31383882	2.6807645e-09
34	0x3135d906	2.646233e-09
35	0x3136a108	2.6576021e-09
36	0x313a2f6f	2.7093525e-09
37	0x313c26e5	2.737971e-09
38	0x313a7de8	2.7138132e-09
39	0x31371011	2.6639138e-09
40	0x3136a725	2.6579496e-09
41	0x31390cf2	2.6928402e-09
42	0x313a2466	2.7087252e-09
43	0x31386ecd	2.6838507e-09
44	0x31354b4f	2.6381775e-09
45	0x31347791	2.6261413e-09
46	0x3135a271	2.6431304e-09
47	0x31362788	2.6506957e-09
48	0x3134e2d8	2.6322393e-09
49	0x3132a7dc	2.5997826e-09
50	0x36391282	2.7577921e-06
51	0x363969b9	2.7628687e-06
52	0x3639aa25	2.7666185e-06
53	0x36395815	2.7618419e-06
54	0x3638dbfb	2.7546182e-06
55	0x36399e31	2.7659228e-06
56	0x3639f4af	2.7709573e-06
57	0x363a4556	2.7756519e-06
58	0x3639e8df	2.7702697e-06
59	0x363968f8	2.7628248e-06
60	0x363a077e	2.772052e-06
61	0x363a6bc7	2.7778894e-06
62	0x363abe32	2.7826868e-06
63	0x363a5b49	2.7769295e-06
64	0x3639c310	2.768069e-06
65	0x3639e238	2.7698825e-06
66	0x363a3346	2.7746005e-06
67	0x363a7464	2.7783908e-06
68	0x363a10c8	2.7725928e-06
69	0x36397f93	2.7641406e-06
70	0x36398f13	2.7650428e-06
71	0x3639de8a	2.7696683e-06
72	0x363a06a9	2.7720037e-06
73	0x36399b2c	2.765747e-06
74	0x36390c74	2.7574397e-06
75	0x36384f4f	2.74643e-06
76	0x3638d00a	2.7539231e-06
77	0x363915f6	2.7579931e-06
78	0x3638c677	2.7533658e-06
79	0x3638364d	2.7449744e-06
80	0x3638d4ef	2.754208e-06
81	0x3639619c	2.7623964e-06
82	0x3639ae10	2.7668466e-06
83	0x363949be	2.7610072e-06
84	0x3638a32a	2.751311e-06
85	0x36390be3	2.7574067e-06
86	0x36399259	2.7652334e-06
87	0x3639d587	2.7691437e-06
88	0x36396124	2.7623691e-06
89	0x3638b549	2.7523658e-06
90	0x3638a129	2.7511944e-06
91	0x36390ef0	2.7575843e-06
92	0x36393ca1	2.760244e-06
93	0x3638d543	2.7542271e-06
94	0x36383f65	2.7455037e-06
95	0x3637fe1a	2.7417032e-06
96	0x363863d2	2.747624e-06
97	0x36388eb4	2.75012e-06
98	0x363831b9	2.744708e-06
99	0x3637aa6c	2.7368324e-06
100	0x00000000	0.0
101	0x00000000	0.0
102	0x00000000	0.0
103	0x00000000	0.0
104	0x00000000	0.0
105	0x00000000	0.0
106	0x00000000	0.0
107	0x00000000	0.0
108	0x00000000	0.0
109	0x00000000	0.0
110	0x00000000	0.0
111	0x00000000	0.0
112	0x00000000	0.0
113	0x00000000	0.0
114	0x00000000	0.0
115	0x00000000	0.0
116	0x00000000	0.0
117	0x00000000	0.0
118	0x00000000	0.0
119	0x00000000	0.0
120	0x00000000	0.0
121	0x00000000	0.0
122	0x00000000	0.0
123	0x00000000	0.0
124	0x00000000	0.0
125	0x375b230a	1.3061575e-05
126	0x375bd021	1.3101876e-05
127	0x375c3b25	1.31267925e-05
128	0x375bc8f3	1.3100204e-05
129	0x375b1dda	1.3060368e-05
130	0x375bd2f9	1.3102538e-05
131	0x375c82d3	1.3143482e-05
132	0x375cfb2c	1.3171502e-05
133	0x375c804f	1.3142896e-05
134	0x375bcf1e	1.310164e-05
135	0x375c55ac	1.3132969e-05
136	0x375d06b4	1.3174187e-05
137	0x375d8aa9	1.3204911e-05
138	0x375d0431	1.3173602e-05
139	0x375c4ad1	1.3130441e-05
140	0x375becaa	1.310852e-05
141	0x375c979c	1.3148321e-05
142	0x375d1072	1.31764555e-05
143	0x375c96a4	1.3148096e-05
144	0x375be3ab	1.3106425e-05
145	0x375b4a16	1.3070667e-05
146	0x375bf32f	1.3110038e-05
147	0x375c5fcb	1.3135325e-05
148	0x375bef04	1.3109067e-05
149	0x375b3e28	1.3067889e-05
150	0x00000000	0.0
151	0x00000000	0.0
152	0x00000000	0.0
153	0x00000000	0.0
154	0x00000000	0.0
155	0x00000000	0.0
156	0x00000000	0.0
157	0x00000000	0.0
158	0x00000000	0.0
159	0x00000000	0.0
160	0x00000000	0.0
161	0x00000000	0.0
162	0x00000000	0.0
163	0x00000000	0.0
164	0x00000000	0.0
165	0x00000000	0.0
166	0x00000000	0.0
167	0x00000000	0.0
168	0x00000000	0.0
169	0x00000000	0.0
170	0x00000000	0.0
171	0x00000000	0.0
172	0x00000000	0.0
173	0x00000000	0.0
174	0x00000000	0.0
175	0x2f1de2ac	1.4359597e-10
176	0x2f133a7c	1.339035e-10
177	0x2f09c0e7	1.252861e-10
178	0x2f05b9d2	1.2162296e-10
179	0x2f071636	1.228607e-10
180	0x2f193013	1.3932348e-10
181	0x2f0ca536	1.279162e-10
182	0x2f00116a	1.1647719e-10
183	0x2ef9c704	1.1358561e-10
184	0x2effcdab	1.16325914e-10
185	0x2f11cfe0	1.3261525e-10
186	0x2f01bf8f	1.1800537e-10
187	0x2efb4c23	1.1427683e-10
188	0x2ef99feb	1.1351616e-10
189	0x2f089e9a	1.2425475e-10
190	0x2f0e7de6	1.2959553e-10
191	0x2f0be99a	1.2724968e-10
192	0x2f08b58f	1.243363e-10
193	0x2f1174f0	1.3229218e-10
194	0x2f1c0937	1.4191391e-10
195	0x2f1c008a	1.4188309e-10
196	0x2f1dc34e	1.4348453e-10
197	0x2f20d125	1.4626218e-10
198	0x2f2c23e2	1.5656057e-10
199	0x2f32bdce	1.6256438e-10
200	0x36175f38	2.2556178e-06
201	0x3617a28f	2.2595375e-06
202	0x3617eb60	2.263776e-06
203	0x3617ae71	2.2602292e-06
204	0x36175ab2	2.2553545e-06
205	0x36178f76	2.2584259e-06
206	0x3617d7d4	2.2626382e-06
207	0x36183439	2.2680163e-06
208	0x3617dc23	2.262889e-06
209	0x361786da	2.2579247e-06
210	0x36179467	2.2587135e-06
211	0x3617e1e0	2.263223e-06
212	0x361839a9	2.2683328e-06
213	0x3617d772	2.262616e-06
214	0x36178739	2.2579463e-06
215	0x36174ee6	2.2546678e-06
216	0x3617914d	2.258533e-06
217	0x3617d426	2.262424e-06
218	0x361778b2	2.2571007e-06
219	0x361730ea	2.2529225e-06
220	0x3616edbf	2.2490128e-06
221	0x36172b0c	2.252581e-06
222	0x361751ae	2.2548297e-06
223	0x361704eb	2.2503616e-06
224	0x3616b6d2	2.2458157e-06
225	0x361b087f	2.3101745e-06
226	0x361b90bc	2.3181046e-06
227	0x361bd77a	2.3222224e-06
228	0x361b8bac	2.31781e-06
229	0x361afb35	2.309401e-06
230	0x361b77be	2.31665e-06
231	0x361c0fd9	2.3255036e-06
232	0x361c5b42	2.329893e-06
233	0x361bf5f4	2.3239963e-06
234	0x361b527a	2.3144808e-06
235	0x361b9532	2.3183643e-06
236	0x361c2a3e	2.32704e-06
237	0x361c67c2	2.3306206e-06
238	0x361bf26b	2.3237906e-06
239	0x361b4aa8	2.3140256e-06
240	0x361b3397	2.312683e-06
241	0x361baa26	2.319584e-06
242	0x361bcee2	2.3217221e-06
243	0x361b6b05	2.3159093e-06
244	0x361ad60f	2.3072387e-06
245	0x361a7cf6	2.3020525e-06
246	0x361ae58c	2.3081402e-06
247	0x361b0b18	2.3103257e-06
248	0x361ab42e	2.3052667e-06
249	0x361a319b	2.2976662e-06
250	0x00000000	0.0
251	0x00000000	0.0
252	0x00000000	0.0
253	0x00000000	0.0
254	0x00000000	0.0
255	0x00000000	0.0

exp_avg f4 [3]
0	0xb986cf3f	-0.00025712882
1	0xba854ba0	-0.0010169633
2	0xbaa977a9	-0.0012929338

exp_avg_sq f4 [3]
0	0x399b83f9	0.0002966223
1	0x395c8986	0.00021032066
2	0x3b7c6f2c	0.0038518412

exp_avg f4 [3, 6, 7, 7]
0	0xb0ab66d1	-1.247111e-09
1	0xb097b446	-1.1037933e-09
2	0xb08fd594	-1.0465322e-09
3	0xb070412a	-8.7404095e-10
4	0xaf53c67e	-1.9260857e-10
5	0x2c052d04	1.8925425e-12
6	0x2c054bf2	1.8942595e-12
7	0xb0931daa	-1.0704089e-09
8	0xb08c8bd6	-1.0226084e-09
9	0xb08b938a	-1.0155514e-09
10	0xb06879c3	-8.457414e-10
11	0xaf42e902	-1.7726978e-10
12	0x2c0bb095	1.985111e-12
13	0x2c0b4948	1.9793767e-12
14	0xb085f618	-9.746968e-10
15	0xb0861147	-9.754694e-10
16	0xb0862209	-9.759457e-10
17	0xb05f0c13	-8.1144086e-10
18	0xaf27c31a	-1.5257876e-10
19	0x2c0f1c22	2.033714e-12
20	0x2c0e30d4	2.0206519e-12
21	0xaf889e0a	-2.485055e-10
22	0xaf8ab83d	-2.5232963e-10
23	0xaf8eecb0	-2.5997826e-10
24	0xaf58497b	-1.9671191e-10
25	0xac3cc5de	-2.6826245e-12
26	0x2c191037	2.1751609e-12
27	0x2c17884e	2.1534055e-12
28	0xad0ed6c1	-8.11945e-12
29	0xad0907ed	-7.789308e-12
30	0xad15eec1	-8.522683e-12
31	0xac9602da	-4.263573e-12
32	0x2c1ebae0	2.2556887e-12
33	0x2c2199a1	2.2964757e-12
34	0x2c1ede1a	2.2576442e-12
35	0x2bbd3432	1.3443745e-12
36	0x2c17d1e7	2.157491e-12
37	0x2c1bf431	2.2162378e-12
38	0x2c1f1d46	2.261151e-12
39	0x2c2322cf	2.3183016e-12
40	0x2c24bb87	2.34099e-12
41	0x2c208cd2	2.2815539e-12
42	0xac4c2c36	-2.9014686e-12
43	0x2c034581	1.8654802e-12
44	0x2c1c8733	2.2243984e-12
45	0x2c1ef312	2.2588082e-12
46	0x2c22819b	2.309353e-12
47	0x2c22bb9c	2.3125729e-12
48	0x2c1cea8a	2.2299129e-12
49	0x00000000	0.0
50	0x00000000	0.0
51	0x00000000	0.0
52	0x00000000	0.0
53	0x00000000	0.0
54	0x00000000	0.0
55	0x00000000	0.0
56	0x00000000	0.0
57	0x00000000	0.0
58	0x00000000	0.0
59	0x00000000	0.0
60	0x00000000	0.0
61	0x00000000	0.0
62	0x00000000	0.0
63	0x00000000	0.0
64	0x00000000	0.0
65	0x00000000	0.0
66	0x00000000	0.0
67	0x00000000	0.0
68	0x00000000	0.0
69	0x00000000	0.0
70	0x00000000	0.0
71	0x00000000	0.0
72	0x00000000	0.0
73	0x00000000	0.0
74	0x00000000	0.0
75	0x00000000	0.0
76	0x00000000	0.0
77	0x00000000	0.0
78	0x00000000	0.0
79	0x00000000	0.0
80	0x00000000	0.0
81	0x00000000	0.0
82	0x00000000	0.0
83	0x00000000	0.0
84	0x00000000	0.0
85	0x00000000	0.0
86	0x00000000	0.0
87	0x00000000	0.0
88	0x00000000	0.0
89	0x00000000	0.0
90	0x00000000	0.0
91	0x00000000	0.0
92	0x00000000	0.0
93	0x00000000	0.0
94	0x00000000	0.0
95	0x00000000	0.0
96	0x00000000	0.0
97	0x00000000	0.0
98	0xb0c4f3ed	-1.4330205e-09
99	0xb0a575dc	-1.2038828e-09
100	0xb0948a28	-1.0807684e-09
101	0xb0aaffe6	-1.2441859e-09
102	0xafbe1a93	-3.457968e-10
103	0xad07dc35	-7.722757e-12
104	0xad47da97	-1.1360377e-11
105	0xb0a37d54	-1.1895431e-09
106	0xb090cbe8	-1.0535333e-09
107	0xb08afc1f	-1.0112479e-09
108	0xb0a6d30a	-1.213807e-09
109	0xafb2fabd	-3.2556172e-10
110	0xab112871	-5.157047e-13
111	0xab6185cf	-8.0121755e-13
112	0xb0931177	-1.0700621e-09
113	0xb08c32d9	-1.0200792e-09
114	0xb08c2616	-1.0197165e-09
115	0xb0a8b8b9	-1.227611e-09
116	0xafaf615f	-3.19015e-10
117	0x2ab77ac6	3.259252e-13
118	0x2b3adfb1	6.639091e-13
119	0xb095dc49	-1.0903786e-09
120	0xb092107a	-1.0627581e-09
121	0xb0932c56	-1.0708259e-09
122	0xb09a186e	-1.1211918e-09
123	0xaf9d1a48	-2.8576808e-10
124	0x2b7c2c75	8.959008e-13
125	0x2b8c5893	9.972183e-13
126	0xaf841b01	-2.4029848e-10
127	0xaf5f710d	-2.0321896e-10
128	0xaf5a85bc	-1.9874496e-10
129	0xaf5d0bd8	-2.010404e-10
130	0x2be90512	1.6557053e-12
131	0x2bfba8c9	1.788147e-12
132	0x2bfa6ff1	1.7794638e-12
133	0xae48adec	-4.562921e-11
134	0xacb7d434	-5.224732e-12
135	0x2b867e8d	9.556398e-13
136	0x2bf83824	1.7637042e-12
137	0x2c0410b8	1.876761e-12
138	0x2c071652	1.9197044e-12
139	0x2bfde4d9	1.8040249e-12
140	0xae88ea44	-6.226178e-11
141	0xad3acb21	-1.061798e-11
142	0x2ad2e6c9	3.7463633e-13
143	0x2bfa016b	1.7763962e-12
144	0x2c00722f	1.8253279e-12
145	0x2be6ff0e	1.6413275e-12
146	0x2b9bc782	1.1068787e-12
147	0xb0be5b60	-1.385029e-09
148	0xb0af1bc4	-1.2740817e-09
149	0xb0975c90	-1.1013004e-09
150	0xb06734b8	-8.411223e-10
151	0xae017016	-2.9430756e-11
152	0x2c2d886e	2.4660512e-12
153	0x2c3dc821	2.696961e-12
154	0xb0bb0b3b	-1.3609233e-09
155	0xb0b75147	-1.3338103e-09
156	0xb0a0d25e	-1.1701322e-09
157	0xb07a5f2c	-9.108472e-10
158	0xae56271e	-4.869271e-11
159	0x2c28624a	2.3928797e-12
160	0x2c3a6007	2.6485496e-12
161	0xb0b3b561	-1.3075515e-09
162	0xb0affa1c	-1.2804011e-09
163	0xb092177f	-1.0629576e-09
164	0xb0631472	-8.2611173e-10
165	0xae73181d	-5.527322e-11
166	0x2c38773f	2.6214168e-12
167	0x2c49a6ab	2.8656337e-12
168	0xb0870ccd	-9.826181e-10
169	0xb08267c8	-9.488241e-10
170	0xb05424a4	-7.717722e-10
171	0xb037293a	-6.66336e-10
172	0xae8b7e80	-6.343459e-11
173	0x2c5daea0	3.1502925e-12
174	0x2c6b814c	3.3467283e-12
175	0xaf20e228	-1.4632262e-10
176	0xaf1a3cb4	-1.4027784e-10
177	0xaefb6c78	-1.14334264e-10
178	0xaeeae389	-1.06815064e-10
179	0x2c87e368	3.862178e-12
180	0x2c8a43f0	3.9297385e-12
181	0x2c8e98c6	4.052844e-12
182	0x2cac032a	4.8888853e-12
183	0x2ca973d8	4.81613e-12
184	0x2ca58f61	4.7055003e-12
185	0x2ca260af	4.615051e-12
186	0x2ca37795	4.646015e-12
187	0x2ca44043	4.668295e-12
188	0x2ca55cf7	4.6999032e-12
189	0x2cbc6c02	5.3552726e-12
190	0x2cbf54e2	5.4379704e-12
191	0x2cbc8bd8	5.358807e-12
192	0x2cb9ee8b	5.2845e-12
193	0x2cba52fa	5.29565e-12
194	0x2cb99524	5.274574e-12
195	0x2cb790c4	5.217245e-12
196	0xb2224d37	-9.447198e-09
197	0xb21428a6	-8.623976e-09
198	0xb20370f8	-7.65089e-09
199	0xb1d4b2f3	-6.1903562e-09
200	0xb12159a1	-2.3479532e-09
201	0xb072aca7	-8.828444e-10
202	0xb01fe967	-5.817555e-10
203	0xb21466df	-8.638124e-09
204	0xb20630ea	-7.810948e-09
205	0xb1eba46a	-6.858092e-09
206	0xb1bbb58f	-5.463057e-09
207	0xb0f242fe	-1.7626858e-09
208	0xaff40b9c	-4.439159e-10
209	0xaf931be8	-2.6758973e-10
210	0xb1ee24eb	-6.9309087e-09
211	0xb1d3543a	-6.1504837e-09
212	0xb1b72ada	-5.3308726e-09
213	0xb190c62a	-4.2134802e-09
214	0xb0a16d78	-1.1745405e-09
215	0xaf420ac1	-1.7648018e-10
216	0xaed9c758	-9.903428e-11
217	0xb1a633c9	-4.837123e-09
218	0xb18eb641	-4.153464e-09
219	0xb179e59b	-3.6364785e-09
220	0xb14884af	-2.9179252e-09
221	0xb04311cc	-7.096588e-10
222	0xae61d77f	-5.1350476e-11
223	0xae5f2779	-5.073939e-11
224	0xb0eb1713	-1.7105058e-09
225	0xb0a06004	-1.1668821e-09
226	0xb063b16a	-8.283424e-10
227	0xb016012e	-5.457136e-10
228	0xae06e3f6	-3.0670542e-11
229	0xae1abdff	-3.5184296e-11
230	0xaec02f18	-8.739515e-11
231	0xb05d69d5	-8.054973e-10
232	0xafd3b9cc	-3.8512693e-10
233	0xaf16379f	-1.3662181e-10
234	0xae18baf6	-3.4726853e-11
235	0xae1dd7d4	-3.588936e-11
236	0xaebe62c8	-8.657747e-11
237	0xaf432624	-1.7748697e-10
238	0xb02a84d4	-6.20344e-10
239	0xafa04378	-2.915177e-10
240	0xaf040e53	-1.2010419e-10
241	0xaea7d529	-7.6321456e-11
242	0xaef5aa13	-1.1171521e-10
243	0xaf550f43	-1.9377659e-10
244	0xafb2d8de	-3.2532105e-10
245	0xb08f6ab7	-1.043495e-09
246	0xb0707bf4	-8.748764e-10
247	0xb07c9a6d	-9.189652e-10
248	0xb0702799	-8.7367763e-10
249	0xaf3e13e6	-1.7287469e-10
250	0x2c0aa6bd	1.9703538e-12
251	0x2c01c801	1.8443027e-12
252	0xb065902d	-8.35146e-10
253	0xb049d690	-7.3428286e-10
254	0xb0594080	-7.90358e-10
255	0xb04c65a8	-7.435923e-10
